autoencoder/ckpt.pth (torch, 442148 bytes, 12 tensors)

module.encoder.0.weight f4 [64, 3, 3, 3]
0	0x3c7fa763	0.015603873
1	0x3d71dd33	0.059048843
2	0xbdf5615f	-0.11981463
3	0xbde9f06d	-0.11422811
4	0xbdfa942b	-0.12235292
5	0xbe4bcf41	-0.1990328
6	0x3e06979a	0.13143769
7	0x3e736cc2	0.23771957
8	0x3d7f67fd	0.06235503
9	0x3e380316	0.17969927
10	0x3c9aa81a	0.018878985
11	0xbdabd305	-0.08389858
12	0x3e00d3bc	0.1258077
13	0x3c892c42	0.016744737
14	0xbd73de1c	-0.059537992
15	0x3da6eafc	0.081502885
16	0x3e2c0c01	0.16801454
17	0xbdb55d3a	-0.08855672
18	0xbc0a05f1	-0.008424268
19	0xbdb9cfce	-0.09072839
20	0xbd6d8647	-0.057989385
21	0xbd833f55	-0.06408564
22	0xbbc44722	-0.005989925
23	0xbe01c8ee	-0.12674305
24	0x3dc73655	0.0972716
25	0x3da6cc4c	0.08144435
26	0x3c4bff4d	0.012451005
27	0x3c3a8c03	0.01138592
28	0x3e3f4ea4	0.18682343
29	0xbde5a6d1	-0.11213458
30	0x3e1f98f3	0.15585689
31	0x3e4b63d3	0.19862299
32	0xbe2445a7	-0.16042195
33	0x3e0707cc	0.13186568
34	0x3e4bf296	0.19916758
35	0xbe2aa74a	-0.16665378
36	0xbdf93667	-0.121685795
37	0x3e07cfa5	0.13262804
38	0x3cf0ffb9	0.029418813
39	0x3cbe7560	0.023249328
40	0x3dd413e2	0.10355355
41	0xbd1b65e3	-0.037938964
42	0x3df22402	0.11823274
43	0xbd05d07d	-0.032669533
44	0xbe316389	-0.17323126
45	0x3cea2d54	0.028586067
46	0x3dc1c092	0.09460558
47	0xbe0fecbf	-0.14055155
48	0xbd8d0c00	-0.068870544
49	0x3e0d3983	0.1379147
50	0xbe6b0546	-0.2295123
51	0x3d89a235	0.06720392
52	0x3da05fa1	0.0783074
53	0xbe84cdeb	-0.25938353
54	0xbe2e8e32	-0.1704643
55	0x3d4b4282	0.049623974
56	0x3d8fabae	0.07015167
57	0x3dff2cd5	0.12459723
58	0x3d91c414	0.07117477
59	0x3de2846d	0.110604145
60	0xbe2fb8da	-0.17160359
61	0xbbf81942	-0.0075713703
62	0xbe527bb7	-0.20555006
63	0x3d91e51d	0.07123778
64	0x3d11c08e	0.035584025
65	0x3dd247df	0.102676146
66	0x3de49885	0.11161903
67	0xbc5c93ce	-0.013462974
68	0x3d2a351a	0.041554548
69	0x3d02a71a	0.03189764
70	0x3b271950	0.0025497265
71	0xbe1d4d77	-0.15361582
72	0xbdc98e84	-0.09841636
73	0xbda37b8d	-0.0798255
74	0xbdbaa442	-0.09113361
75	0x3e20607d	0.15661807
76	0x3de4d55e	0.11173509
77	0x3d6d24b4	0.05789633
78	0xbce8540a	-0.028360385
79	0xbe06bfee	-0.13159153
80	0xbd0b124a	-0.03395299
81	0x3d6667a5	0.056251187
82	0x3d934acf	0.07192003
83	0xbe2011b3	-0.15631752
84	0x3cd34cc7	0.025793446
85	0x3d6722ac	0.05642955
86	0x3d8c9bf2	0.06865682
87	0xbb4ddf31	-0.003141355
88	0xbe2943d9	-0.16529788
89	0xbe46d09b	-0.19415514
90	0x3c404125	0.011734282
91	0x3dfb6503	0.12275126
92	0x3da384d3	0.079843186
93	0x3e2eba91	0.17063357
94	0x3e61a7dd	0.22036691
95	0x3bfb5b1c	0.007670773
96	0xbdc8a930	-0.09797895
97	0x3d547ddd	0.051877845
98	0x3dd68b59	0.10475797
99	0xbe2a6178	-0.16638744
100	0xbd84d48f	-0.06485855
101	0x3d62bd18	0.055356115
102	0x3e0aea5c	0.13565964
103	0x3d04861a	0.03235445
104	0xbda388f3	-0.07985105
105	0xbb5d021c	-0.003372318
106	0xbe42ed63	-0.19035868
107	0xbe05fece	-0.13085482
108	0xbd48627e	-0.048922054
109	0xbd72e6c6	-0.059302114
110	0x3db5d861	0.088791616
111	0xbc8cb069	-0.017173963
112	0xbe351cba	-0.1768674
113	0xbc3e1cc6	-0.01160354
114	0x3d04a18b	0.032380622
115	0x3d87cadb	0.066304885
116	0x3cb4eb85	0.02208496
117	0xbd5fee43	-0.054670583
118	0x3d319011	0.043350283
119	0x3db8dc65	0.09026412
120	0x3c9859b3	0.01859746
121	0xbdff985a	-0.12480231
122	0x3cf7c97e	0.030247446
123	0x3cf24981	0.029576065
124	0x3d534169	0.05157605
125	0xbceaf64c	-0.028681897
126	0xbccea70a	-0.025226135
127	0x3d5f5890	0.05452782
128	0x3b70e238	0.003675593
129	0x3d706d49	0.058697972
130	0xbda2b7ec	-0.079452366
131	0x3dcf9c6b	0.10137256
132	0x3c34a998	0.011026762
133	0xbd5b44c5	-0.05353238
134	0x3d1a46ac	0.037665054
135	0xbbf0e6ee	-0.0073517477
136	0x3e05872e	0.13039848
137	0xbd2aef42	-0.04173208
138	0x3def9cdc	0.116998404
139	0x3c896bb5	0.016774992
140	0xbcd04e85	-0.025428066
141	0x3ce49f20	0.027907908
142	0xbe0518f8	-0.12997806
143	0xbd133af0	-0.03594488
144	0x3d2fdce8	0.042935282
145	0x3db02b08	0.086019576
146	0xbc0152f2	-0.007893311
147	0xbba12657	-0.0049179005
148	0x3dbc92da	0.09207697
149	0x3c593b15	0.013258715
150	0xbd7fe9ad	-0.06247871
151	0x3d65e66d	0.056127954
152	0xbe1a5d33	-0.15074615
153	0xbd0c7f5d	-0.03430115
154	0xbc9195e6	-0.017771672
155	0xbd8624bf	-0.065499775
156	0xbdcdb7af	-0.100448005
157	0x3e1e7ff4	0.15478498
158	0xbb07d59c	-0.0020726686
159	0xb86df3c3	-5.6732224e-05
160	0x39e09709	0.0004283714
161	0xbda8e433	-0.082466505
162	0xbd68027b	-0.05664299
163	0xbc8f9b1e	-0.01753002
164	0xbddff5e8	-0.10935575
165	0xbdcd155e	-0.10013841
166	0x3c14a677	0.009072891
167	0x3e414603	0.18874364
168	0xbdd8d272	-0.10587014
169	0xbe2eaef3	-0.17058925
170	0x3e7a2ca3	0.2443109
171	0x3e0f676b	0.14004295
172	0x3d5f9a54	0.05459054
173	0xbd7c302f	-0.06156939
174	0xbc0f5d62	-0.008750292
175	0xbcd2620b	-0.025681516
176	0x3db2cb80	0.08730221
177	0xbd27c129	-0.040955696
178	0xbe0d3821	-0.13790943
179	0x3e3a17d4	0.18173152
180	0x3e12e12e	0.14343712
181	0xbd2761b6	-0.04086467
182	0xbe16d828	-0.14730895
183	0xbcbaf9a0	-0.022824109
184	0xbd945a66	-0.07243805
185	0x3cc0dd27	0.023542954
186	0x3c7c92d2	0.015415864
187	0xbdb43356	-0.08798854
188	0x3dc6bb4d	0.097036935
189	0xbe06eb38	-0.13175666
190	0xbd796c7f	-0.060894486
191	0x3dea600d	0.114441015
192	0x3dd4a033	0.10382118
193	0xbe1e4ab1	-0.1545818
194	0x3d3cb857	0.046074238
195	0x3def4507	0.11683088
196	0xbcb19e8f	-0.021682052
197	0x3d4a297a	0.04935596
198	0x3d039c07	0.03213122
199	0xbe2b7649	-0.16744341
200	0x3dd020db	0.10162517
201	0xbdf94353	-0.12171044
202	0xbd09e750	-0.033667862
203	0x3db3e9c5	0.087848224
204	0xbc98ae9a	-0.018637944
205	0xbd071d23	-0.03298677
206	0xbe0554a4	-0.13020569
207	0xbc9f2052	-0.019424591
208	0x3d3fa48f	0.046787795
209	0x3dd6cf3a	0.10488744
210	0x3d5ff3ee	0.05467599
211	0xbd32cebb	-0.043654185
212	0xbcc1961c	-0.023631148
213	0x3e30c290	0.1726172
214	0x3c8a42d2	0.016877566
215	0x3d0de154	0.034638718
216	0x3e1c618d	0.15271588
217	0xbcab2723	-0.020892685
218	0xbde82f53	-0.113371514
219	0x3e2d04fd	0.16896434
220	0x3e078c8c	0.13237208
221	0xbe439979	-0.19101514
222	0xbe027a10	-0.12741876
223	0xbd8c18b7	-0.068406515
224	0xbd4c5fc6	-0.049896024
225	0xbcf27435	-0.029596427
226	0x3dba77b7	0.09104865
227	0xbe080ef4	-0.13286954
228	0xbc84ddc1	-0.016219022
229	0x3e1dd609	0.15413679
230	0x3c064b80	0.008196712
231	0xbdcdc9cf	-0.100482576
232	0x3d65128b	0.055925887
233	0x3df1b3ac	0.11801848
234	0xbc9c3823	-0.019069737
235	0xbc46e971	-0.012140618
236	0xbced6966	-0.028980922
237	0xbe2d5bc9	-0.16929545
238	0x39324d8f	0.00017004296
239	0x3e2a906a	0.16656652
240	0xbe433465	-0.19062956
241	0x3dae8d43	0.08523037
242	0xbb07062d	-0.0020603046
243	0x3d58c179	0.052918885
244	0x3d5ea1ce	0.054353528
245	0x3e1df39d	0.15424962
246	0xbd0c0a90	-0.03418976
247	0xbd480a91	-0.048838202
248	0xbd325eb5	-0.04354735
249	0x3dad931e	0.08475326
250	0xbdf086f1	-0.11744488
251	0x3d48cd7a	0.049024083
252	0xbe4ad409	-0.19807447
253	0xbdc53e64	-0.09631041
254	0xbdc4453e	-0.095835194
255	0xbe2de9cb	-0.16983716

module.encoder.0.bias f4 [64]
0	0xbd872477	-0.06598752
1	0x3d8afbad	0.067862846
2	0xbd77aa88	-0.060465366
3	0x3cce6834	0.025196172
4	0xbc47435d	-0.012162057
5	0x3df88b60	0.12135959
6	0x3de58c89	0.112084456
7	0xbcd476ef	-0.025935618
8	0x3d5cfe24	0.053953305
9	0x3df05035	0.11734048
10	0x3b9b22f4	0.0047343913
11	0xbd694341	-0.056948904
12	0x3e31f129	0.17377152
13	0x3d943144	0.07235959
14	0x3d70bfb5	0.058776576
15	0x3d9fe823	0.078079484
16	0x3d35e5b3	0.04440851
17	0xbd831098	-0.063996494
18	0x3c5e78b5	0.0135785835
19	0xbd708cf1	-0.058728162
20	0x3e509224	0.20368248
21	0x3d44329d	0.04789983
22	0x3dceede6	0.10103969
23	0xbcbce3dc	-0.02305787
24	0x3d8db9df	0.06920218
25	0x3dce27e4	0.10066202
26	0x3df11861	0.11772228
27	0x3e0c3983	0.13693814
28	0xbe12b4a2	-0.14326718
29	0x3e4ee9c7	0.20206366
30	0x3e25a85a	0.16177502
31	0x3c7ea39f	0.01554194
32	0x3ce7527b	0.028237572
33	0x3df05236	0.117344305
34	0xbbd95e65	-0.006633567
35	0xbe18130f	-0.1485102
36	0x3d394e04	0.045240417
37	0xbd9c8e4b	-0.07644328
38	0x3d5421a4	0.051789895
39	0xbaefb64d	-0.0018288583
40	0xbe206134	-0.1566208
41	0x3d3282d0	0.043581784
42	0x3d4f6be2	0.050639994
43	0xbc9d3860	-0.01919192
44	0xbde385a3	-0.111094736
45	0x3d1f85a3	0.038945805
46	0x3dd7c514	0.105356365
47	0xbd3e12e5	-0.046404738
48	0xbd1d7b6e	-0.03844779
49	0xbd8187ff	-0.06324767
50	0x3c9144d8	0.017733023
51	0xbdb8ce84	-0.09023765
52	0x3d3e59d9	0.046472404
53	0xbe01346f	-0.12617658
54	0x3e3baf22	0.18328527
55	0x3d41a0ee	0.047272615
56	0x3c1f8250	0.009735659
57	0xbe060ffe	-0.13092038
58	0x3cdd05bb	0.026980272
59	0xbd8e0a67	-0.06935578
60	0xbdd48c20	-0.10378289
61	0x3df2c4ac	0.118539184
62	0xbd1b2f9d	-0.037887204
63	0x3e3f6aa8	0.1869303

module.encoder.1.weight f4 [64, 64, 3, 3]
0	0x3b90b37e	0.0044159284
1	0xbd1824e3	-0.037144553
2	0xbd69081a	-0.056892492
3	0x3d81a96e	0.06331144
4	0xba35f481	-0.0006941036
5	0x3c88e919	0.016712712
6	0x3c794345	0.015213792
7	0x3d2d1fb4	0.042266563
8	0x3d87df77	0.066344194
9	0xbcdb8f1b	-0.026801636
10	0x3ba11d38	0.004916813
11	0xbcf181d6	-0.029480856
12	0x3cab9941	0.0209471
13	0xbc5205aa	-0.012818733
14	0xbc8e16b1	-0.017344804
15	0x3b895a4c	0.0041916724
16	0x3c50ad26	0.012736594
17	0x3d4acc4e	0.049511246
18	0x3c8260c4	0.015915282
19	0x3be9b036	0.0071316017
20	0xbcb7bc1e	-0.022428568
21	0xbab02016	-0.0013437297
22	0xba324325	-0.00068001664
23	0xba689426	-0.00088721735
24	0xbc631d28	-0.013861932
25	0xbd0c0c75	-0.034191567
26	0xbcd5eb00	-0.026113033
27	0x3c0d0c50	0.008608893
28	0x3cd80fda	0.026374746
29	0xbcea6d4b	-0.028616568
30	0x3c748ab0	0.014925644
31	0xbd0d9c87	-0.034573104
32	0xbcb83e8a	-0.022490758
33	0xbcc944c6	-0.024568927
34	0xbd45dd00	-0.048306465
35	0xbb928e16	-0.0044725044
36	0xbc86b34b	-0.016442915
37	0x3c79bd2d	0.015242857
38	0x3c4d2627	0.012521303
39	0x3b0b060b	0.0021213319
40	0x3c952f9a	0.018211175
41	0x3c8d3864	0.017238803
42	0xbb9c2d0e	-0.004766113
43	0x3ad220fe	0.0016031561
44	0x3b20e04f	0.002454776
45	0xbc76cd8f	-0.015063657
46	0x3cb9f566	0.022700023
47	0xbc92bbd6	-0.017911833
48	0xbc4d126b	-0.012516598
49	0xbae164df	-0.00171962
50	0xbc5ef6a1	-0.013608606
51	0x3c9fe1ce	0.019516852
52	0x389eec5e	7.578054e-05
53	0xbcafdcbd	-0.02146756
54	0xbbc3644f	-0.0059628855
55	0xbce23348	-0.027612343
56	0x3d232810	0.03983313
57	0x3cd4393c	0.025906198
58	0x3c6d8648	0.014497347
59	0x3ba36831	0.004986786
60	0x3d135545	0.03596999
61	0xbc75fd57	-0.015014014
62	0xbc7596bd	-0.014989552
63	0x3cdec1f1	0.027192088
64	0xbd1ddc79	-0.038540337
65	0xbb144140	-0.00226219
66	0x3b2cf30a	0.002638998
67	0x3cac1383	0.021005398
68	0x3d606bc7	0.054790284
69	0x3b84156c	0.004030874
70	0x3cbf228b	0.023331901
71	0x3c6dc27e	0.014511703
72	0xbc6c9185	-0.014438991
73	0x3afee685	0.0019447362
74	0x3be1ada6	0.0068871556
75	0xbb99650c	-0.004681235
76	0x3c3fdf13	0.0117109
77	0xbc8dc210	-0.01730445
78	0x3c7203ec	0.014771443
79	0x3bcd168e	0.0062587922
80	0xbcb44823	-0.022007054
81	0x3b356a15	0.0027681638
82	0xbb00f33f	-0.0019676236
83	0x3d5941fe	0.05304145
84	0xbce1631d	-0.027513081
85	0xbb99d9d3	-0.004695156
86	0xbc8a970e	-0.016917732
87	0x3d1c292e	0.03812521
88	0xbc5d652c	-0.013512891
89	0xba8f0991	-0.0010912885
90	0x3b95d33e	0.004572301
91	0x3ba9bd65	0.0051800483
92	0xbc6a24d6	-0.014291009
93	0xbbbbe3cf	-0.005733944
94	0xbc8e853b	-0.017397514
95	0xbc8d4f9c	-0.017249875
96	0xbb7b3bb8	-0.0038335156
97	0x3c9cddf8	0.019148812
98	0x3c6cb747	0.014447994
99	0xbc40f444	-0.011776987
100	0x3cbf4d87	0.023352398
101	0xbcbbb5c0	-0.022913814
102	0xbc312dcc	-0.0108141415
103	0xbd053a18	-0.032526106
104	0xbcf8cdd2	-0.03037158
105	0xbb07cc12	-0.0020721
106	0xbc59f388	-0.013302691
107	0xbbac2bff	-0.005254268
108	0x3d27c369	0.040957842
109	0xbd496c07	-0.04917529
110	0x3d5f1249	0.054460797
111	0x3afc94b9	0.0019270397
112	0x3d279e72	0.04092259
113	0x3d0a2e01	0.03373528
114	0x3b97cc8d	0.0046325387
115	0x3cc94233	0.024567699
116	0x3adb5bb8	0.0016735708
117	0xbbfbc237	-0.0076830643
118	0xbb84c6d0	-0.0040520206
119	0xbc5e2bdd	-0.0135602625
120	0x3d255843	0.040367376
121	0x3caf97a4	0.021434613
122	0xbb2f4e42	-0.0026749526
123	0x3ca2fc50	0.019895703
124	0x3c3e4b00	0.011614561
125	0xbce2f554	-0.027704872
126	0xbc966900	-0.018360615
127	0x3c071df4	0.0082468875
128	0xbc0c883a	-0.008577401
129	0xbb2d79c4	-0.0026470283
130	0x3be69325	0.007036584
131	0xbcc006b1	-0.02344069
132	0xbc167d34	-0.009185124
133	0x3c020866	0.007936573
134	0xbce33e60	-0.027739704
135	0x3b0348c2	0.002003238
136	0xbc72372b	-0.014783661
137	0x3c615e40	0.013755381
138	0xbcb619f0	-0.022229165
139	0xbd2af544	-0.04173781
140	0xbcc28cb2	-0.02374873
141	0x3cb3258c	0.02186849
142	0x3c856055	0.016281286
143	0x3ca9d7c5	0.02073277
144	0x3ad514be	0.0016256792
145	0xbd73be26	-0.05950751
146	0xbcc8272b	-0.02443274
147	0x3d6635ab	0.056203526
148	0x3d860ea9	0.06545765
149	0x3d20f465	0.039295573
150	0x3cce5ec9	0.025191681
151	0x3d65484e	0.05597716
152	0x3d5c1144	0.053727403
153	0xbd40d0e0	-0.0470742
154	0x3c7e694e	0.015528036
155	0x3bc23a68	0.0059273727
156	0xbd10d1d0	-0.035356343
157	0xbd2488a7	-0.040169384
158	0xbd239b67	-0.039943125
159	0xbc9e93a3	-0.019357508
160	0xbc725fb1	-0.014793322
161	0xbcf769a5	-0.030201742
162	0x3d07dd15	0.033169825
163	0x3a62599f	0.00086345704
164	0xbbebbc5d	-0.0071940855
165	0x3cd85f5c	0.026412658
166	0x3cc7d52b	0.024393639
167	0x3cebb66b	0.028773507
168	0x3bb551b9	0.0055334237
169	0x3d036121	0.03207505
170	0x3d0af009	0.03392032
171	0x3d2e267c	0.04251717
172	0x3c993553	0.018702185
173	0xbd720c79	-0.059093926
174	0x3d23d784	0.040000454
175	0xbbc551bc	-0.0060217064
176	0x3c33ef7f	0.010982393
177	0x3c247931	0.01003866
178	0xbd07c62c	-0.033147976
179	0x3cabd002	0.02097321
180	0x3c52e743	0.01287252
181	0x3c8650b9	0.016395913
182	0xbcc9cf91	-0.024635108
183	0xbc2b49f3	-0.010454643
184	0xbc8c0e8f	-0.017096786
185	0x3b7c028b	0.0038453664
186	0x3b9dc2a8	0.0048144646
187	0x3c0e61ec	0.008690339
188	0x3d3347a5	0.043769497
189	0x3d4098df	0.04702079
190	0xbd04e2b3	-0.03244276
191	0xbcdaa8eb	-0.026691874
192	0x3d87fc35	0.066399015
193	0x3d328152	0.04358036
194	0x3cc0e43a	0.023546327
195	0x3b864ea1	0.0040987288
196	0x3d5023c6	0.050815366
197	0x3d871979	0.065966554
198	0xba87a1b5	-0.0010347875
199	0xbcb30692	-0.021853719
200	0xbcd3fdf6	-0.025877934
201	0x3c9041e0	0.017609537
202	0x3c819656	0.015818756
203	0x3d07a095	0.033112127
204	0xbcc4e12d	-0.024033153
205	0x3d1bf9b3	0.03807993
206	0x3cc0cfd5	0.023536602
207	0x3d1d3176	0.038377248
208	0xbba14385	-0.004921379
209	0x3d1a54c4	0.037678495
210	0xbcdfc68b	-0.027316352
211	0x3a9d6499	0.001200813
212	0xbcbdcaf1	-0.023168059
213	0xbbc1f452	-0.005919018
214	0x3c677de5	0.014129137
215	0xbc3b91a1	-0.011448295
216	0xba558530	-0.00081451517
217	0xbcea0073	-0.028564667
218	0xbca39d19	-0.019972371
219	0x3d282396	0.041049562
220	0x3b8e96b1	0.00435146
221	0x3d02306e	0.031784467
222	0x3ca9db60	0.020734489
223	0x3c958296	0.018250745
224	0x3d081cba	0.03323052
225	0x3c5c61b6	0.0134510305
226	0xbcf4e143	-0.02989257
227	0x3c522226	0.012825524
228	0x3c5066a7	0.012719787
229	0x3c83e774	0.016101576
230	0x3c775478	0.0150958225
231	0xbc0980a5	-0.008392488
232	0xbb61e2aa	-0.0034467378
233	0xbaf49198	-0.0018659113
234	0xbc0072b9	-0.007839852
235	0x3cc979c0	0.024594188
236	0xbc4dffd3	-0.0125732
237	0x3c085ea1	0.008323343
238	0x3c5e644f	0.01357372
239	0xbcb23d87	-0.021757854
240	0xbb60a308	-0.0034276862
241	0xbcebd0a7	-0.028786017
242	0x3cc9df1f	0.024642525
243	0xbd016735	-0.031592567
244	0xbca6c006	-0.020355236
245	0xbbf3139c	-0.007418109
246	0x3d530a09	0.051523242
247	0x3d2be65b	0.04196773
248	0x3d041ccd	0.03225403
249	0x3c801f3d	0.015639896
250	0x3d4decd9	0.050274704
251	0x3d1ed315	0.038775522
252	0x3be7bcf1	0.007072084
253	0xbd7689a9	-0.060189877
254	0xbbf8a094	-0.007587502
255	0x3ca3bbb8	0.019986972

module.encoder.1.bias f4 [64]
0	0x3d1bd73a	0.038047053
1	0x3d023243	0.031786215
2	0xbdb1ab59	-0.0867526
3	0x3cd2bb3f	0.025724052
4	0xbc4b2b68	-0.012400486
5	0xbc89c132	-0.016815756
6	0xbcd80e3b	-0.026373973
7	0xbdeb4d8f	-0.114894025
8	0xbc07240b	-0.008248339
9	0xbbd8a2e1	-0.0066112136
10	0xbc7e1b6e	-0.015509469
11	0xbc99d82f	-0.018779842
12	0xbcc7fb5a	-0.024411846
13	0x3d016cf8	0.03159806
14	0x3bb7db6a	0.005610873
15	0xbc62b897	-0.013837955
16	0xbc9287c1	-0.017886998
17	0x3d16c55e	0.036809318
18	0xbd8526db	-0.06501552
19	0xbc8171d4	-0.015801348
20	0xbda8ef73	-0.08248796
21	0xbcbc71c2	-0.023003463
22	0x3d1dc389	0.038516555
23	0xbc95040b	-0.018190404
24	0xbcc02040	-0.023452878
25	0xbdb74d6a	-0.089503124
26	0x3c8633bd	0.016382093
27	0xb917b80d	-0.00014469046
28	0x3cbb1a38	0.02283965
29	0xbc9ec372	-0.019380305
30	0xb921e814	-0.00015440612
31	0xbc0beb46	-0.00853998
32	0x3c10a36f	0.008828028
33	0x3db6b9ab	0.08922132
34	0x3d3c1959	0.04592261
35	0x3cdb04f4	0.02673576
36	0xbd0f8c0a	-0.03504566
37	0x3cb4496e	0.02200767
38	0xbccb7e09	-0.024840372
39	0xbd690190	-0.056886256
40	0x3cc63648	0.024195805
41	0xbd3e4762	-0.046454795
42	0x3d166509	0.03671745
43	0x3bf9b29e	0.00762017
44	0xbba84f8f	-0.0051364372
45	0xbbe32360	-0.0069317073
46	0x3da697e9	0.08134443
47	0xbcec04d8	-0.028810903
48	0xbdbd1cd4	-0.09234014
49	0x3bcca47f	0.0062451954
50	0xbc497085	-0.012294893
51	0x3ba67dc7	0.005080912
52	0x3cd4568b	0.025920173
53	0xbc50a598	-0.012734793
54	0x3dc03860	0.09385753
55	0x3c94fced	0.01818701
56	0x3cfe8939	0.031071292
57	0x3c1fee36	0.009761384
58	0x3d2cd4e8	0.04219523
59	0xbc9215c5	-0.017832646
60	0x3dac82b4	0.08423367
61	0xbd50fbf8	-0.051021546
62	0xbce3ca59	-0.027806448
63	0x3dd2569d	0.102704264

module.encoder.2.weight f4 [64, 64, 3, 3]
0	0xbd1f63a7	-0.038913395
1	0xbd67d301	-0.056597713
2	0xbc91f59c	-0.017817311
3	0x3cb0a8c6	0.021564852
4	0xbd0b1e69	-0.03396455
5	0x3d98d560	0.07462573
6	0xbaa19e51	-0.0012330507
7	0x3c342d57	0.010997138
8	0xbd2605a6	-0.04053273
9	0x3cde0fd5	0.027107159
10	0x3cdf0cb5	0.027227739
11	0xbce7312a	-0.028221685
12	0xb9ae8bbf	-0.00033291985
13	0x3d45d302	0.048296936
14	0xbc89c701	-0.016818525
15	0x3ca8b286	0.02059294
16	0xbd78e7b8	-0.06076786
17	0x3d807e91	0.062741406
18	0xbc0d8688	-0.008638032
19	0xbca8d8a2	-0.020611111
20	0x3d1c1ef0	0.03811544
21	0x3c871420	0.016489089
22	0xbc7fe105	-0.015617614
23	0xbc6964f1	-0.014245258
24	0x3ce1d103	0.027565485
25	0x3c50e6ec	0.012750369
26	0x3c96755c	0.018366508
27	0xbbef857f	-0.007309615
28	0x3aae0696	0.0013277109
29	0xbacdced5	-0.00157019
30	0x3d325019	0.04353342
31	0xbc3e6bbd	-0.0116223665
32	0x3c822c2b	0.015890202
33	0xbbc57f57	-0.006027143
34	0x3c5e1fd1	0.01355739
35	0x3bf19ec1	0.0073736613
36	0xbd82d37e	-0.06387995
37	0xbc99b645	-0.01876367
38	0xbce264c4	-0.02763594
39	0x3ba9908a	0.005174701
40	0x3ab3636d	0.0013686247
41	0xbd2bcaf1	-0.041941587
42	0xbc8b84d1	-0.017031105
43	0xbbe12187	-0.006870452
44	0xbc082cbe	-0.008311449
45	0x3b28ed94	0.0025776373
46	0xbc266de0	-0.010158032
47	0xbd6abf64	-0.05731143
48	0x3d196a83	0.037455093
49	0xbc77f8d6	-0.015135011
50	0xbd0728c3	-0.032997858
51	0x3aec2290	0.0018015672
52	0xbd0513c5	-0.032489557
53	0x3d3f8d3e	0.04676556
54	0xbce49104	-0.02790118
55	0x3b0ac40d	0.0021173984
56	0x3a0f28b3	0.0005461082
57	0x3c771642	0.01508099
58	0x3c007df9	0.007842534
59	0x3abf5c63	0.0014599677
60	0x3d1e553b	0.0386555
61	0xbc495180	-0.0122874975
62	0x3cba158c	0.022715352
63	0xbce55bf3	-0.027997946
64	0x3c7510b1	0.014957593
65	0x3c3c9cfc	0.011512037
66	0x3d15b5a9	0.036550198
67	0x3d017f9c	0.03161584
68	0x3c12627d	0.008934614
69	0x3cecf7cd	0.028926754
70	0x3d304f53	0.0430444
71	0xbca2cee0	-0.019874036
72	0xbd62380f	-0.055229243
73	0xbb964429	-0.004585762
74	0x3cbcae8b	0.023032447
75	0x3d416c49	0.04722241
76	0xbd0564cf	-0.03256684
77	0x3ca8178a	0.020519037
78	0xbd3a47e3	-0.045478713
79	0x3d08390a	0.03325752
80	0xbd0148b2	-0.03156347
81	0x3b3ffaca	0.002929377
82	0xbd717b73	-0.05895562
83	0x3ca9a18e	0.020706918
84	0x3b7c2ff5	0.0038480733
85	0x3ce9e131	0.028549762
86	0x3ad7e315	0.0016470874
87	0x3cf31b1f	0.029676018
88	0x3c2b0157	0.010437331
89	0x3b14660d	0.0022643835
90	0xbc195c0a	-0.009360323
91	0x3c6005a2	0.013673218
92	0xbcff120d	-0.031136537
93	0xbc5a2ccd	-0.013316345
94	0xbbc58acf	-0.00602851
95	0xbd0ac5f2	-0.03388018
96	0x3c6aa674	0.014321912
97	0x39fa0fff	0.00047695634
98	0x3c0eb4a4	0.00871006
99	0x3c56eb23	0.013117584
100	0xbc09193f	-0.008367836
101	0x3d0e5cbd	0.03475641
102	0x3ba64118	0.0050736777
103	0x3c4d250d	0.012521041
104	0xbc1bd3fa	-0.009510988
105	0x3d1720c7	0.036896493
106	0x3d1f06fb	0.038825016
107	0xbd23f1b8	-0.040025443
108	0x3c855cf5	0.016279677
109	0xbbe0b26c	-0.006857207
110	0x3c91b259	0.017785238
111	0xbc9b3a22	-0.018948618
112	0xbacfbd3b	-0.0015849242
113	0xba8eba5f	-0.0010889283
114	0xbcf79119	-0.030220555
115	0x3c44b2df	0.012005537
116	0xbc9b2f90	-0.018943578
117	0xbd89c8ce	-0.067277536
118	0xbd7ede8b	-0.062223952
119	0x3d002050	0.031280816
120	0x3be16bf7	0.0068793255
121	0xbc876528	-0.016527727
122	0x3c8b66a6	0.01701672
123	0xbb9d2467	-0.0047955993
124	0x3c914001	0.017730715
125	0xbd0e3bce	-0.034725003
126	0x3b931169	0.0044881594
127	0xbb633553	-0.0034669235
128	0xbd083fe3	-0.033264052
129	0xbc750c92	-0.01495661
130	0x3c6c8a96	0.014437338
131	0xbc88f7e6	-0.01671977
132	0xbd1e85c7	-0.0387018
133	0xbcf7d372	-0.030252192
134	0x3d3f75a9	0.04674307
135	0x3b677464	0.0035317177
136	0xbc3755b5	-0.011189868
137	0x3d1d4300	0.038393974
138	0x3ba802ab	0.005127271
139	0x3c374cbf	0.011187731
140	0xbccf6f09	-0.0253215
141	0xbc13c3c6	-0.009018844
142	0x3d184a8a	0.03718046
143	0xbcb415a6	-0.021982979
144	0xb93fd499	-0.00018294378
145	0x3cb13b56	0.021634739
146	0x3c6a4ff2	0.014301287
147	0x3d3803f0	0.04492563
148	0xbcdeeadd	-0.0272116
149	0xbbf0c9bb	-0.007348267
150	0x3c627f0e	0.0138242375
151	0xbc9e9f8b	-0.019363185
152	0xbc65535e	-0.013996927
153	0xbcf41f3b	-0.029800048
154	0x3cc3e351	0.023912104
155	0x3c302a46	0.010752266
156	0xbd14b19e	-0.0363022
157	0xbc6bcc92	-0.014392035
158	0xbcc13823	-0.023586338
159	0x3a1a480e	0.0005885371
160	0x3c122c41	0.008921684
161	0x3c4700d6	0.012146195
162	0x3d1df884	0.03856708
163	0x3b62644d	0.0034544647
164	0x3cfff490	0.031244546
165	0x3cf3b658	0.029750034
166	0x3c32798a	0.010893235
167	0x3bca67d9	0.0061769304
168	0x3c5c6edf	0.013454168
169	0x3bf90076	0.007598932
170	0xbc5c2724	-0.013437066
171	0xbd693629	-0.056936417
172	0x3cd7e680	0.026355028
173	0x3c913a5a	0.01772802
174	0x3beede7c	0.007289706
175	0xba105a7a	-0.0005506646
176	0x3d8a47fd	0.06752012
177	0xbc8ca96c	-0.01717063
178	0x3c4f92cf	0.012669279
179	0xbd31801a	-0.043335058
180	0xbc396184	-0.011314753
181	0xbb9500dc	-0.0045472216
182	0x3d47d86a	0.048790373
183	0x3c8bb10c	0.017052196
184	0x3c52dfdd	0.012870756
185	0xbcfce95f	-0.030872999
186	0x3bca13ca	0.00616691
187	0x3bb698ea	0.005572428
188	0xba9a4c3d	-0.0011771988
189	0xbc788cb0	-0.015170261
190	0xbc147abc	-0.009062465
191	0xbab4278e	-0.0013744698
192	0xbae0a72a	-0.0017139663
193	0xbc10b268	-0.008831598
194	0x3d2b513b	0.041825514
195	0x3c063ff0	0.008193955
196	0xbc9d8446	-0.019228112
197	0xbd060f8e	-0.032729678
198	0xbc0719e4	-0.008245919
199	0x3c76bf1c	0.015060212
200	0xbc3bae68	-0.011455156
201	0x3c30da24	0.010794196
202	0xbc5d6661	-0.013513179
203	0xbca6b96f	-0.020352094
204	0xbc895755	-0.016765276
205	0xbd57cbdb	-0.052684646
206	0x3d6a83ee	0.057254724
207	0x3c9cb031	0.019126983
208	0x3c8a6b3e	0.01689684
209	0x3bb4e5c2	0.0055205533
210	0x3c85f317	0.016351266
211	0xbcd74120	-0.026276171
212	0x3ca9d48b	0.020731231
213	0xbc347d9a	-0.011016274
214	0x3d247a81	0.04015589
215	0xbcc0b578	-0.023524031
216	0x3ca18a88	0.019719377
217	0x3bef77fe	0.0073080054
218	0x3d04418b	0.03228907
219	0x3c1cc91b	0.009569432
220	0x3d2cc582	0.042180546
221	0xbd2279eb	-0.03966705
222	0xbd3fa3cc	-0.04678707
223	0x3d0b72e9	0.034045134
224	0x3b1d5418	0.0024006423
225	0xbd30f23f	-0.043199774
226	0xbcc33670	-0.023829669
227	0xbc83093e	-0.015995618
228	0x3d4fb3a0	0.050708413
229	0x3d0d390f	0.034478243
230	0x3bf8c566	0.007591891
231	0x3cedc025	0.029022286
232	0xbc9ba029	-0.018997269
233	0xbb26e0a1	-0.002546348
234	0x3b83743f	0.0040116603
235	0xbcd77071	-0.026298733
236	0xbc9091ee	-0.01764771
237	0x3b28a1ea	0.0025731274
238	0x3ce2e6fc	0.027698033
239	0x3ca02403	0.019548422
240	0x3c6f6a62	0.014612766
241	0xbcdc9b4e	-0.026929524
242	0x3c414b1d	0.011797694
243	0xbd0dd62e	-0.034628086
244	0xbd278f03	-0.04090787
245	0x3c0bfe89	0.008544573
246	0x3c131626	0.008977449
247	0x3aad1811	0.0013206025
248	0x3c27f9e6	0.0102524515
249	0xbbafece7	-0.005368817
250	0x3d515591	0.051106993
251	0xbc9a79f0	-0.018856972
252	0xbc9dce72	-0.01926348
253	0x3c45ab4a	0.012064764
254	0xbc98103c	-0.018562429
255	0x3c0a0bc5	0.008425658

module.encoder.2.bias f4 [64]
0	0x3cdac6cc	0.026706122
1	0xbc97c5f4	-0.018527009
2	0xbc324be1	-0.010882349
3	0x3cf06784	0.029346235
4	0xbcd60d14	-0.026129283
5	0x3d62c33f	0.055361982
6	0x3cdf3282	0.027245764
7	0xbc45ba1f	-0.0120683005
8	0x3cb8d597	0.022562785
9	0x3a9e9a45	0.0012100419
10	0xbcbd9c18	-0.02314572
11	0xbc4c07d3	-0.012453037
12	0xbd4ae1a2	-0.049531586
13	0xbda5eaa1	-0.081013925
14	0x3c378b51	0.011202649
15	0x3d6536ab	0.05596034
16	0x3d0f3e86	0.034971736
17	0xbd1f6f89	-0.038924728
18	0x3d0c6b1c	0.034281835
19	0xbbb4e358	-0.0055202655
20	0x3d9592b3	0.07303371
21	0x3c4985a7	0.012299932
22	0x3c4039c6	0.011732524
23	0xbc6b7e30	-0.014373347
24	0xbc9711f7	-0.018441183
25	0x3b66fb5d	0.003524504
26	0x3d543f90	0.05181843
27	0x3cb96658	0.02263181
28	0x3cc5ff75	0.024169663
29	0xbd29bb74	-0.041438535
30	0x3ca7c334	0.020478822
31	0x3c401a47	0.011725015
32	0xbd2cc5bf	-0.042180773
33	0x3d8ccb04	0.0687466
34	0xbc8367cb	-0.016040703
35	0x3ca5613e	0.02018797
36	0xbc0dc741	-0.008653463
37	0xbcdae41c	-0.0267201
38	0xb94a09f0	-0.00019267923
39	0x3d62780e	0.055290274
40	0x3d3ec99d	0.046578992
41	0x3c3c04b3	0.01147573
42	0x3d013fb3	0.03155489
43	0x3c6f0fa8	0.014591135
44	0xbd264091	-0.04058892
45	0x3c8a6134	0.016892053
46	0xbca9dc9b	-0.020735076
47	0xbc20ff2b	-0.009826462
48	0x3ccb3fb1	0.024810644
49	0xbcd154d0	-0.025553137
50	0x3d784b34	0.060618594
51	0xbc4ca083	-0.012489441
52	0x3b063e4d	0.0020483912
53	0x3d5fb229	0.054613266
54	0x3be90fc9	0.0071124774
55	0xbb9f8e1b	-0.004869235
56	0xbceda3eb	-0.029008826
57	0xb928d2ad	-0.00016100211
58	0x3cbeeb9a	0.023305703
59	0x3bd5f2c9	0.0065291864
60	0x3c01b840	0.007917464
61	0xbc871495	-0.016489306
62	0xbd17a74e	-0.03702479
63	0xbc219e58	-0.009864412

module.decoder.0.weight f4 [64, 64, 2, 2]
0	0x3d1bc59d	0.038030256
1	0xbd4b2050	-0.049591362
2	0x3d114281	0.035463814
3	0xbc85cee7	-0.01633401
4	0xbc820c8c	-0.015875123
5	0x3ca011fa	0.019539822
6	0xbdafa185	-0.08575729
7	0x3d374ba7	0.044749882
8	0xbd9e535e	-0.07730745
9	0x3d6be23b	0.057588797
10	0x3d33d1e3	0.043901335
11	0xbd09b982	-0.03362418
12	0xbd37ed19	-0.04490385
13	0xbd90b222	-0.07065226
14	0xbcc28ac1	-0.023747804
15	0x3d69c328	0.05707088
16	0xbb695114	-0.0035601305
17	0xbcbd3d06	-0.023100387
18	0xbe173066	-0.14764556
19	0x3c963e1d	0.018340165
20	0x3c11fc5c	0.008910265
21	0xbccd2c0d	-0.02504542
22	0x3ca75595	0.02042655
23	0x3b9bbd54	0.0047527943
24	0xbc2483ef	-0.010041221
25	0xbccaa892	-0.024738584
26	0xbd80c223	-0.06287029
27	0x3d4905ba	0.049077727
28	0xbc666fb2	-0.014064716
29	0xbd3335df	-0.043752547
30	0xbc4a6e78	-0.012355439
31	0x3cc169e3	0.023610061
32	0xbd80f95c	-0.062975615
33	0xbc6c2763	-0.014413687
34	0x3d64e685	0.055883903
35	0x3c84043d	0.016115302
36	0xbd748148	-0.059693605
37	0x3cb08c5f	0.02155131
38	0xbd2d2a9d	-0.042276967
39	0xbc2f4f71	-0.010700093
40	0x3d6f9500	0.058491707
41	0x3cbfd560	0.023417175
42	0xbd7ddbde	-0.06197726
43	0x3da6a5b7	0.08137076
44	0xbb04ce49	-0.0020264557
45	0xbc95758c	-0.018244527
46	0xbc8b9858	-0.017040417
47	0x3c12d90f	0.008962884
48	0xbd573ebc	-0.052550063
49	0xbd19480c	-0.037422225
50	0x3cfde595	0.030993262
51	0x3c170dd5	0.009219606
52	0xbcfe6f5d	-0.031058962
53	0x3c5e44cf	0.01356621
54	0x3bbf61b0	0.0058405027
55	0x3bbb5d7e	0.0057179322
56	0x3d0d5083	0.03450061
57	0xb76995d0	-1.3922763e-05
58	0x3d15f3ad	0.03660934
59	0x3db04c71	0.0860833
60	0x3c1b12bc	0.009464916
61	0xbce0ef91	-0.027457984
62	0xbd3d468d	-0.04620986
63	0xbc9da515	-0.019243756
64	0x3d1c2264	0.038118735
65	0xbd4d9709	-0.050192866
66	0xbd46d13c	-0.048539385
67	0xbce8e1d4	-0.028427996
68	0x3c741ff2	0.0149001945
69	0x3ce2931b	0.027658036
70	0xbd8e09da	-0.06935473
71	0x3ce9e768	0.028552726
72	0xbc3fc776	-0.01170527
73	0xbc8b7075	-0.017021397
74	0xbb0ca9b5	-0.0021463458
75	0xbd59d0cc	-0.05317764
76	0xbd0bd44a	-0.034138
77	0xbc08fccc	-0.008361053
78	0xbd8e6f5d	-0.069548346
79	0x3d2949ee	0.04133027
80	0xbcb6a9ff	-0.022297857
81	0xb869874f	-5.5677545e-05
82	0xbbceca1f	-0.006310716
83	0xbd8376ed	-0.06419168
84	0x3b9f2750	0.0048569813
85	0x3c791274	0.0152021535
86	0x3d986121	0.07440401
87	0xbd7e4d60	-0.06208551
88	0x3d41c35c	0.04730545
89	0xbcefad43	-0.029257422
90	0xbd43cab0	-0.04780072
91	0x3d1780b8	0.03698799
92	0x3dad56c8	0.08463818
93	0xbd1433fb	-0.036182385
94	0x3b0f01bb	0.00218211
95	0x3d22f199	0.039781187
96	0x3cd5b42c	0.02608689
97	0xbd7c1a43	-0.061548483
98	0x3cefc3ee	0.029268231
99	0x3d5d1753	0.05397732
100	0x3cbba2cb	0.022904774
101	0x3cf5cddd	0.03000539
102	0x3c1fdee3	0.00975773
103	0xbc3ed991	-0.011648552
104	0xbcd916ce	-0.026500132
105	0xbd2bbf12	-0.041930266
106	0x3d27406e	0.04083293
107	0xbcf5da3d	-0.03001129
108	0x3b9bf8ed	0.004759899
109	0xbd306f8d	-0.043075133
110	0x3c4aa36f	0.012368067
111	0x3baa7a30	0.005202554
112	0x3c66dba5	0.014090453
113	0xbc7be086	-0.015373355
114	0xbc96b736	-0.018397909
115	0xbc122af2	-0.008921372
116	0xbcbfae7f	-0.023398636
117	0x3d4ca367	0.04996052
118	0x3c4fa62e	0.012673898
119	0xbd82d4de	-0.063882574
120	0x3ccd603e	0.025070306
121	0x3d546a15	0.05185898
122	0xbca44490	-0.020052224
123	0xbd0b6533	-0.034032058
124	0x3d4e4012	0.05035407
125	0xbd1cd1b0	-0.03828591
126	0x3c41e302	0.011833908
127	0xbaf52542	-0.001870312
128	0x3cbfd37a	0.02341627
129	0x3d4ea433	0.05044956
130	0x3c7af367	0.015316821
131	0xba92867c	-0.0011178995
132	0xbd1efed7	-0.038817253
133	0x3c75a51b	0.0149929775
134	0xbd1822ee	-0.037142687
135	0xbbcef919	-0.006316316
136	0x3cee240b	0.029069921
137	0x3af39fb1	0.001858702
138	0xbc0c7043	-0.008571687
139	0xbb011e3a	-0.0019701854
140	0xbc14a08f	-0.009071483
141	0x3c302f7f	0.010753511
142	0xbcbd3c8c	-0.02310016
143	0x3d228e29	0.039686356
144	0xbd466ba8	-0.048442513
145	0x3daf1657	0.08549183
146	0xbda7cfcb	-0.0819393
147	0x3d901941	0.07036067
148	0x3c2bda1d	0.010489014
149	0x3d2de4db	0.04245458
150	0x3c822fa9	0.015891867
151	0xbd2d2180	-0.042268276
152	0xbca59abe	-0.020215388
153	0x3d64233c	0.055697665
154	0xbb494e7e	-0.003071695
155	0xbc2d0033	-0.0105591295
156	0xbd061cc2	-0.03274227
157	0xbcd74439	-0.026277648
158	0xbcdeda37	-0.027203662
159	0x3d4bb96c	0.04973738
160	0xbd5e445a	-0.054264404
161	0x3a918364	0.001110178
162	0x3d3e6597	0.046483602
163	0x3bd4f546	0.0064989654
164	0xbb32fa8c	-0.0027309982
165	0xbac24722	-0.0014822225
166	0xbc33b2ac	-0.010967892
167	0xbcdbca77	-0.026829941
168	0xbd289ced	-0.04116528
169	0xbca1ef96	-0.019767564
170	0x3adef628	0.0017010616
171	0x3cecce56	0.028906982
172	0x3cb974b3	0.022638654
173	0xbd085137	-0.033280578
174	0xbc9d12a9	-0.019173937
175	0xbd9d755f	-0.076884024
176	0x3c64418d	0.013931644
177	0xbc60b796	-0.013715645
178	0xbafd9a32	-0.0019348322
179	0xbcaf0529	-0.021364765
180	0xbd1438d6	-0.036187015
181	0xbd8f95af	-0.07010972
182	0xbd003c26	-0.031307362
183	0x3d199b24	0.03750147
184	0x3d05df27	0.032683518
185	0xbd2b4285	-0.041811485
186	0xbd42ffb8	-0.047607154
187	0xbd0635aa	-0.03276602
188	0xbc80409f	-0.015655814
189	0x3cd967d1	0.026538761
190	0x3d12e307	0.03586104
191	0x3ced7a6f	0.028989045
192	0x3ce73625	0.02822406
193	0x3ca96308	0.020677105
194	0x3ca10be2	0.019658986
195	0xbc0a84ed	-0.008454544
196	0xbb518053	-0.0031967356
197	0xbd9fb442	-0.07798053
198	0xbb7cf543	-0.0038598336
199	0xbdb96fcb	-0.09054526
200	0xbd0be698	-0.03415546
201	0xbbe9387f	-0.0071173306
202	0x3d15cb2f	0.036570724
203	0x3beb6579	0.0071837273
204	0xbd179434	-0.037006572
205	0xbc318ac1	-0.010836304
206	0xbd063aec	-0.032771036
207	0xbda8b1e1	-0.08237053
208	0x3d403e00	0.046934128
209	0xbd347c34	-0.04406376
210	0xbc6e0ce4	-0.014529441
211	0xbcddd0f3	-0.027077174
212	0x3d6c1884	0.057640567
213	0x3d851631	0.06498373
214	0xbc87870a	-0.016543884
215	0xbcd290bf	-0.025703786
216	0xbd5464c7	-0.05185392
217	0x3cbdb574	0.023157813
218	0x3cb846aa	0.022494633
219	0xbb58ef5c	-0.0033101654
220	0x3c9aa62f	0.01887807
221	0xbb6c8e87	-0.0036095695
222	0xbbc7f3ad	-0.0061020465
223	0xbd325215	-0.04353531
224	0x3bb82108	0.005619172
225	0x3d2ae0bd	0.041718233
226	0xbc45eb18	-0.0120799765
227	0xbd8b2514	-0.067941815
228	0x3d5469b6	0.051858626
229	0xbc52cf2f	-0.012866779
230	0xbdd2e1f7	-0.102970056
231	0x3d84990d	0.064745046
232	0xbcfd770a	-0.030940551
233	0x3c0cd79c	0.008596327
234	0x3d1f6420	0.038913846
235	0xbd6b376f	-0.057425912
236	0xbcf9237d	-0.03041243
237	0x3d331306	0.043719314
238	0x3cb0a8b0	0.021564811
239	0x3ca8eaf8	0.020619854
240	0x3d02611a	0.031830885
241	0xbb4cde6d	-0.0031260506
242	0xbcf18c49	-0.029485838
243	0x3cab4812	0.02090839
244	0x3b898367	0.0041965726
245	0x3cd2e552	0.025744114
246	0xbd5ca7da	-0.053871013
247	0x3a909210	0.0011029858
248	0x3b45ddd3	0.0030192032
249	0x3db00a96	0.08595769
250	0xbcdf3b1c	-0.027249865
251	0x39ee5c94	0.00045463874
252	0x3a179fb4	0.00057839905
253	0x3ce3a5fb	0.027789107
254	0x3c828678	0.01593326
255	0x3d904198	0.07043761

module.decoder.0.bias f4 [64]
0	0x3d0d0861	0.03443182
1	0xbcacc19c	-0.021088414
2	0xbcda966f	-0.02668306
3	0x3dad2caf	0.08455788
4	0x3d9d1bbd	0.07671306
5	0xbb2d4d99	-0.0026443957
6	0x3d386b02	0.045023926
7	0x3d57393f	0.05254483
8	0x3d974fe1	0.073882826
9	0x3c3c0e42	0.011478009
10	0x3cbce5b7	0.023058755
11	0xbc9f9dc8	-0.019484416
12	0x3c55cacf	0.013048842
13	0xbc980143	-0.01855529
14	0xbc607643	-0.013700071
15	0x3d968f98	0.07351607
16	0xbcbafbd3	-0.022825157
17	0x3bae506c	0.0053196456
18	0x3d35fdf5	0.044431645
19	0x3dc03e69	0.09386904
20	0xbbde4e44	-0.0067842323
21	0xbc8c7be2	-0.017148916
22	0xbc2cc235	-0.010544349
23	0xbc976d9a	-0.01848488
24	0xbbad1be1	-0.0052828644
25	0xbd598cb8	-0.053112715
26	0x3bf23ad4	0.0073922668
27	0x3c87e69c	0.016589455
28	0x3d699299	0.057024572
29	0xbd44819f	-0.04797518
30	0x3c19593b	0.009359653
31	0x3c9fc1c4	0.019501574
32	0xbbfa89b0	-0.007645808
33	0xbb6065d4	-0.0034240382
34	0xbd07e057	-0.03317293
35	0x3cb1fa7d	0.021725887
36	0xbb9a686f	-0.0047121565
37	0xbbc7cc5d	-0.00609736
38	0x3c777c4c	0.015105318
39	0x3d666686	0.056250118
40	0xbdb348c2	-0.08754112
41	0x3d030744	0.03198935
42	0x3d752e38	0.05985853
43	0xbcafc8a0	-0.02145797
44	0x3c48ebc4	0.012263242
45	0x3d849be6	0.06475048
46	0xbce03403	-0.027368551
47	0xbcb22b9a	-0.021749306
48	0xbdbac0f8	-0.09118837
49	0xbcb2ee69	-0.021842198
50	0xbd2fd23a	-0.042925097
51	0xbce12eb7	-0.027488096
52	0x3d1eaf0f	0.038741168
53	0xbd02d214	-0.031938627
54	0xbd05787a	-0.0325856
55	0xbc956fbd	-0.018241758
56	0xbc94b007	-0.018150343
57	0x3d3b7ebc	0.04577516
58	0xb9eef496	-0.00045577128
59	0xbce51fb7	-0.027969224
60	0x3d6d6fc3	0.057967912
61	0xbc4b9b4b	-0.012427161
62	0xbda32199	-0.079653926
63	0xbd171563	-0.03688563

module.decoder.1.weight f4 [64, 64, 2, 2]
0	0xbc39c161	-0.011337609
1	0x3cdec0f3	0.027191615
2	0xbd178e4b	-0.037000936
3	0xbd37acd6	-0.044842564
4	0x3d0f692f	0.03501242
5	0x3c527221	0.012844593
6	0xbd015057	-0.03157076
7	0xbcb75334	-0.022378542
8	0xbc901bcd	-0.017591381
9	0xbbc2da31	-0.0059464206
10	0xbc312dd3	-0.010814148
11	0xbcc29c90	-0.023756295
12	0x3cee51e3	0.029091781
13	0x3cd56560	0.026049316
14	0x3da82d62	0.08211781
15	0xbd2c2ca0	-0.042034745
16	0x3d2d8974	0.042367414
17	0xbd00acbf	-0.031414744
18	0xbd1e4386	-0.038638614
19	0xbce03658	-0.027369663
20	0xbd2bb7f6	-0.041923486
21	0x3c9fad16	0.019491713
22	0xbd8d89d7	-0.069110565
23	0x3cba1321	0.0227142
24	0x3cadd753	0.021220839
25	0xbc85d4ad	-0.016336763
26	0xbd272d2b	-0.04081456
27	0xbd568dd6	-0.05238136
28	0xbd049d87	-0.032376792
29	0x3ccd88fa	0.02508973
30	0x3d1db330	0.038500965
31	0xbd0fe171	-0.035127107
32	0x3c222658	0.009896837
33	0x3c0fcae3	0.008776399
34	0x3d658950	0.056039155
35	0x3cbe291f	0.023212967
36	0xbd42366f	-0.047415193
37	0x3cc6004d	0.024170065
38	0xbcbe8a47	-0.023259295
39	0xbd531e80	-0.05154276
40	0x3c25359e	0.010083584
41	0x3bb4a208	0.0055124797
42	0xbd003976	-0.0313048
43	0x3b9855c7	0.0046488973
44	0xbc9bb35e	-0.019006427
45	0x3c0b03bc	0.008484777
46	0xbd81f04f	-0.06344663
47	0x3bfc15e4	0.0076930393
48	0x3d096713	0.033545565
49	0xbbc419dc	-0.005984528
50	0xbb273e5e	-0.0025519351
51	0xbac84af8	-0.0015281131
52	0xbcd52ca0	-0.026022255
53	0xbd2322ac	-0.039827988
54	0xbd741849	-0.059593473
55	0xbd9c86ab	-0.076428734
56	0xbd03df6f	-0.032195505
57	0x3c295d8f	0.0103372475
58	0x3cf6228b	0.030045768
59	0xbd559f51	-0.05215389
60	0xbd118f47	-0.03553703
61	0x3c4e0a08	0.012575634
62	0x3d528172	0.05139298
63	0x3d80250b	0.062570654
64	0x3cec86ce	0.028872874
65	0xbc1da534	-0.009621907
66	0xbce2858f	-0.027651576
67	0xbcd39d45	-0.025831828
68	0xbc4351e5	-0.011921381
69	0xbbabd6ad	-0.005244097
70	0xbcd43484	-0.025903948
71	0x3d38ffce	0.04516583
72	0xbca5f94b	-0.020260474
73	0x3d12ec50	0.035869896
74	0xbdb23b1a	-0.08702679
75	0xbd6b417c	-0.057435498
76	0xbd091073	-0.033462953
77	0xbd5e0ca0	-0.05421126
78	0x3d2ab5d4	0.04167731
79	0xbbc59755	-0.006030003
80	0x3c74ee45	0.014949386
81	0x3cc75987	0.024334682
82	0x3d10b9c6	0.035333417
83	0x3c1c865e	0.00955352
84	0xbcff1f24	-0.031142779
85	0x3bc9759a	0.0061480524
86	0x3d7c2833	0.061561774
87	0x3d59ed3c	0.05320476
88	0x3c546b9e	0.012965111
89	0xbd0844bc	-0.033268675
90	0x3c1c68ad	0.009546441
91	0x3ce1a611	0.027545007
92	0xbce3eff0	-0.027824372
93	0xbd37f1c7	-0.04490831
94	0xbcc60c85	-0.024175892
95	0xbc551cf9	-0.013007396
96	0x3b429015	0.002968793
97	0x3b9f422e	0.004860184
98	0xbb886fc0	-0.0041637123
99	0xbc959e22	-0.01826388
100	0x3c906a81	0.01762891
101	0x3bed5d71	0.007243805
102	0xbcbd96bc	-0.023143165
103	0x3d10ff57	0.03539976
104	0xbc729d2a	-0.014807979
105	0xbc9cbe01	-0.01913357
106	0x3c0fb059	0.008770072
107	0xbc993ee1	-0.01870674
108	0xbd676897	-0.05649623
109	0x3bc24fb0	0.0059299096
110	0xbca28d20	-0.019842684
111	0x3d28f109	0.041245494
112	0x3c93c746	0.018039357
113	0xbbcd2589	-0.006260578
114	0xbc9a3367	-0.018823339
115	0x3d30b1f1	0.04313845
116	0x3a7d748e	0.0009668552
117	0x3d5524f0	0.05203718
118	0x3c2e6c66	0.010645961
119	0x3cc66b6e	0.024221148
120	0xbd09a65b	-0.033605915
121	0x3a36adab	0.00069686276
122	0x3d891f5b	0.06695434
123	0x3d01c11c	0.031678304
124	0xbbf758fd	-0.00754845
125	0xbcde44c6	-0.027132403
126	0x3b4a86aa	0.003090302
127	0xbd095e06	-0.033536933
128	0x3ca8f281	0.020623447
129	0xb9a9a89d	-0.0003235982
130	0x3d400374	0.046878293
131	0x3d475e97	0.048674192
132	0x3cfe5727	0.031047417
133	0xbd51ece5	-0.05125131
134	0xbd53428b	-0.051577132
135	0xbd94d46e	-0.0726708
136	0x36eab4c8	6.994789e-06
137	0xbc3737f2	-0.011182772
138	0xbd633a90	-0.05547577
139	0xbcfe6403	-0.031053549
140	0x3c605959	0.013693177
141	0xbc1bd86f	-0.009512051
142	0xbccfe4d2	-0.025377665
143	0x3d1c63be	0.03818106
144	0x3be559cb	0.0069992295
145	0xbb9d76ec	-0.0048054364
146	0xbd59742f	-0.053089317
147	0xbcd3b17a	-0.025841463
148	0xbcb8fdad	-0.0225819
149	0x3d28d268	0.041216284
150	0x3cd92520	0.02650696
151	0x3d9dc063	0.077027105
152	0xbd147625	-0.036245484
153	0x3d4e959c	0.050435647
154	0xbd5fa688	-0.054602176
155	0xba24d0c0	-0.00062872097
156	0xbb047570	-0.00202116
157	0xbc335aa8	-0.010946907
158	0x3b51e927	0.0032029839
159	0xbd3c3d90	-0.045957148
160	0x3c19a74f	0.009378268
161	0xbb109b1c	-0.0022065109
162	0x3ba994c6	0.005175206
163	0xbc85375b	-0.016261747
164	0x3be3ee55	0.0069559016
165	0xbd25d057	-0.04048189
166	0x3c4567be	0.01204866
167	0xbcca6954	-0.024708427
168	0x3cb988a0	0.022648156
169	0xbaf87688	-0.0018956224
170	0x3ace9366	0.0015760481
171	0xbd816b87	-0.06319337
172	0xbc6ea8ba	-0.014566595
173	0xbce74ac6	-0.028233897
174	0x3bc0bec8	0.005882118
175	0x3b598502	0.003319085
176	0xbc5d8f02	-0.013522865
177	0xbc2f9fd4	-0.010719258
178	0xbc8eb053	-0.017418062
179	0x3d82f834	0.06394997
180	0xbc2e5d1a	-0.010642314
181	0xbd0c9d3d	-0.03432964
182	0xbc9adc23	-0.018903797
183	0xbd13cad4	-0.036082104
184	0xbb9e5031	-0.004831337
185	0xbcfd6ec1	-0.0309366
186	0xbd69932d	-0.057025123
187	0xbd68e76c	-0.056861326
188	0x3cd9947f	0.026560066
189	0xbc5a934a	-0.0133407805
190	0x3be97bff	0.007125377
191	0xbcbcc23f	-0.023041843
192	0x3d70787c	0.058708653
193	0xbbb02727	-0.005375761
194	0x3d1b417f	0.03790426
195	0x3d4a1f45	0.049346227
196	0x3d22cfa0	0.039748788
197	0xbd4e2854	-0.05033143
198	0x3d39e264	0.04538192
199	0xbc3b6aa1	-0.0114389965
200	0x3cf2da6c	0.029645167
201	0xbc4a87b1	-0.012361453
202	0xbc11be07	-0.008895404
203	0xbd0aedad	-0.03391807
204	0xbbdd4429	-0.00675251
205	0x3c8ae81b	0.01695638
206	0xbcb5d9df	-0.022198616
207	0x3d668a96	0.05628451
208	0xbc3c187f	-0.01148045
209	0xbd08acea	-0.03336803
210	0x3d445c66	0.04793968
211	0xbcb5d6bb	-0.022197118
212	0xbd148b7a	-0.036265828
213	0x3b338b7a	0.0027396367
214	0xbd950785	-0.07276825
215	0xbd78b126	-0.060715817
216	0xbcda8759	-0.026675867
217	0x3c59f645	0.013303344
218	0xbd5cbea4	-0.053892747
219	0xbcc9c3fb	-0.024629584
220	0xbb1b8013	-0.0023727461
221	0x3d4fee54	0.050764397
222	0x3c0e004b	0.008667062
223	0x3d5bcd2a	0.053662457
224	0x3c1b8b9b	0.009493734
225	0x3d5442ed	0.051821638
226	0x3d9adb95	0.07561413
227	0x3dde7043	0.10861256
228	0x3cdc8741	0.026919963
229	0xbbace126	-0.005275863
230	0x3d721675	0.059103448
231	0x3d1b490f	0.03791147
232	0xbd8e5faf	-0.06951844
233	0xbaa09d8a	-0.0012253982
234	0xbcf12e3c	-0.029440992
235	0xbcd095b7	-0.025462015
236	0x3c1758e4	0.009237502
237	0xbb9f68f3	-0.004864806
238	0xbd2032a3	-0.03911079
239	0xbd8fd23e	-0.070225224
240	0x39ef5d09	0.0004565495
241	0x3cacae81	0.021079304
242	0x3cafcd1a	0.021460105
243	0x3db61241	0.088902004
244	0x3d1e227e	0.038607113
245	0xbd828424	-0.0637286
246	0xbd349b5c	-0.044093475
247	0xbd7118e1	-0.058861617
248	0x3c828bce	0.015935805
249	0xbd50673c	-0.050879702
250	0xbcc95cf9	-0.024580466
251	0x3cde5bbd	0.027143354
252	0x3c37e3f2	0.01122378
253	0xbc04664a	-0.008081028
254	0x3c8b5420	0.017007887
255	0xbd37d552	-0.044881172

module.decoder.1.bias f4 [64]
0	0xbd2aa7ae	-0.041663818
1	0xbc206437	-0.009789518
2	0xbd7ef394	-0.062244013
3	0x39812386	0.00024631264
4	0x3c937ac3	0.018002873
5	0xbce97b32	-0.028501127
6	0x3d3bff08	0.045897514
7	0xbbe46723	-0.0069703027
8	0x3c26be10	0.01017715
9	0xbd1939ba	-0.037408568
10	0x3d9cb970	0.07652557
11	0xbcb6028c	-0.022218011
12	0x3c988f83	0.01862312
13	0xbcb1af24	-0.021689959
14	0xbd02c4dd	-0.031926025
15	0x3c976dfc	0.018485062
16	0xbcbd3507	-0.023096574
17	0x3948dde1	0.00019156143
18	0xbd86637f	-0.06561946
19	0x3d156f31	0.036482994
20	0x3ca6d4ea	0.020365197
21	0x3dc305ad	0.09522567
22	0x3cc3b40e	0.023889568
23	0x3cbbea05	0.022938738
24	0x3d290ebe	0.041273825
25	0xbd28d436	-0.041218005
26	0xbc9bce09	-0.019019144
27	0xbd563065	-0.052292246
28	0xbcbe7c9e	-0.023252781
29	0xbbedaee0	-0.0072535127
30	0x3c9ecff3	0.019386267
31	0xbd2aac3e	-0.04166817
32	0x3d5981a5	0.053102154
33	0x3b8b7277	0.0042555886
34	0xbcfa5b66	-0.03056116
35	0x3b13ecf0	0.0022571646
36	0xbcd66e6f	-0.026175706
37	0xbc72f4e7	-0.014828897
38	0xbd4552f0	-0.0481748
39	0xbd7650c8	-0.060135633
40	0xbcedb56a	-0.029017169
41	0x3c3f6a0a	0.0116829965
42	0x3c9ff6a6	0.01952679
43	0xbb22c4cc	-0.0024836538
44	0x3c1249b4	0.008928705
45	0x3d537740	0.051627398
46	0x3d8d0280	0.068852425
47	0x3bebe25f	0.0071986164
48	0x3d8fbd88	0.07018572
49	0x3c108901	0.008821727
50	0x3d2fd8e4	0.042931452
51	0xbd0024e2	-0.031285174
52	0xbc272eca	-0.0102040265
53	0xbd457dba	-0.048215605
54	0xbd9bbdf1	-0.07604588
55	0xbcac9344	-0.021066315
56	0x3cb79932	0.022411916
57	0x3d564dc4	0.052320257
58	0xbc68a1e6	-0.014198756
59	0xbc90ab4c	-0.017659806
60	0xbca18dbf	-0.01972091
61	0x3c955bc8	0.018232241
62	0x3b8d79d7	0.004317503
63	0xbcb79a43	-0.022412425

module.decoder.2.weight f4 [64, 3, 2, 2]
0	0x3e00efb4	0.1259144
1	0xbd87d27b	-0.06631943
2	0xbb785d67	-0.003789747
3	0xbe28d811	-0.16488673
4	0xbdf97ca6	-0.12181978
5	0x3d0bb2b0	0.034105957
6	0x3c307e2c	0.010772269
7	0x3aa8ad82	0.0012869092
8	0xbe16f7a6	-0.14742908
9	0xbdf5bcb9	-0.119988866
10	0xbe074967	-0.13211595
11	0xbe63086b	-0.2217118
12	0xbe18a48f	-0.14906524
13	0xbda295f0	-0.079387546
14	0xbe09fe13	-0.13475828
15	0x3c3acaf7	0.01140093
16	0xbd9369dd	-0.07197926
17	0xbe2072ce	-0.15668795
18	0x3d69d503	0.05708791
19	0x3da5ca5a	0.08095236
20	0x3dfcad51	0.12337745
21	0xbd4a33bf	-0.049365755
22	0x3e0dd918	0.13852346
23	0xbc0bac2c	-0.008524936
24	0x3e257aa3	0.16160063
25	0xbd8078ba	-0.06273027
26	0x3d996864	0.07490614
27	0xbdf58a11	-0.11989225
28	0xbe0e714a	-0.13910404
29	0xbd8d9ddb	-0.06914874
30	0xbdb6179f	-0.08891224
31	0x3caf7b55	0.021421114
32	0xbe039097	-0.12848125
33	0x3caa6b1e	0.02080303
34	0xbe12010b	-0.1425821
35	0xbd440688	-0.04785779
36	0xbe010484	-0.12599379
37	0xbe3d2dc6	-0.18474492
38	0xbe5274ab	-0.20552318
39	0x3dbed6c0	0.09318304
40	0x3e0a5418	0.13508642
41	0xbe00b0b1	-0.12567402
42	0xbc82959d	-0.015940482
43	0x3cc49d94	0.02400092
44	0x3e0fa738	0.14028633
45	0x3d9b52e8	0.075841725
46	0xbe08a5d3	-0.13344507
47	0x3e09e902	0.13467792
48	0xbda68949	-0.08131654
49	0x3dea687d	0.11445711
50	0xbcbd6ad7	-0.023122234
51	0xbc8d6a78	-0.017262682
52	0xbd660b43	-0.056163084
53	0x3d880efe	0.066434845
54	0x3e189869	0.1490189
55	0xbb358f13	-0.0027703687
56	0xbcc24ab2	-0.023717258
57	0x3d517b62	0.051143058
58	0x3cefe077	0.029281838
59	0xbb333775	-0.0027346287
60	0x3dcd9cc6	0.10039668
61	0x3e77ee1d	0.24211927
62	0x3e4cbcfa	0.19993964
63	0xbcbacb5c	-0.022802047
64	0x3e0dc4f7	0.13844667
65	0x3d76301f	0.060104486
66	0x3e85556e	0.2604174
67	0x3e178885	0.14798172
68	0xbc8f8334	-0.017518617
69	0xbcb9c0e5	-0.022674987
70	0x3e20a723	0.15688758
71	0x3a1fd10a	0.0006096518
72	0xbd94b22e	-0.072605476
73	0x3c376ef6	0.011195889
74	0xbdaafe68	-0.083493054
75	0xbbdb3efd	-0.0066908584
76	0x3cd8f23a	0.02648269
77	0xbda60885	-0.08107094
78	0x3e18aadf	0.14908932
79	0x3da1e459	0.07904882
80	0x3daca834	0.0843052
81	0x3de28261	0.11060024
82	0x3e1ae9b6	0.15128216
83	0x3dfe3606	0.12412648
84	0xbd142070	-0.036163747
85	0xbe3a7dee	-0.18212101
86	0xbe2acdd4	-0.1668008
87	0xbe5e97f5	-0.21737655
88	0x3d62fdbc	0.05541776
89	0xbe0fef11	-0.1405604
90	0xbdea7126	-0.114473626
91	0xbe641aa0	-0.22275782
92	0xbdc45b94	-0.0958778
93	0xbe492b81	-0.19645502
94	0xbe417d33	-0.18895416
95	0xbe0e337c	-0.13886827
96	0xbde6948a	-0.112588
97	0x3b8994e6	0.0041986583
98	0xbdd3c5c8	-0.10340458
99	0xbac5656c	-0.0015060133
100	0x3dc9bdf4	0.09850684
101	0xbdd2824c	-0.102787584
102	0x3d2e98f6	0.042626344
103	0xbe41ce63	-0.18926387
104	0xbd487bd5	-0.04894622
105	0x3d3a8031	0.04553241
106	0xbe292d63	-0.1652122
107	0xbe392428	-0.18080199
108	0x3dfde05a	0.12396307
109	0x3c4fc287	0.012680656
110	0xbda5157b	-0.08060738
111	0x3dfdec33	0.12398567
112	0xbbd06c36	-0.006360556
113	0xbe25415f	-0.16138218
114	0x3c174d74	0.009234775
115	0x3c63321e	0.013866929
116	0xbe21e436	-0.15809712
117	0xbe1d815f	-0.15381382
118	0x3dd2165a	0.102581695
119	0x3db7935c	0.089636534
120	0x3d770d7a	0.060315587
121	0x3d5a4c09	0.05329517
122	0x3e508021	0.20361377
123	0x3d640781	0.05567122
124	0x3e1ac617	0.15114628
125	0xbd3aff98	-0.04565391
126	0x3e39c1de	0.1814036
127	0xbdb0163c	-0.08597991
128	0x3e2e6522	0.17030767
129	0x3e30a86e	0.17251751
130	0x3e0f2ac8	0.13981164
131	0xbbadcd98	-0.0053040497
132	0xbddf3dbe	-0.10900448
133	0x3cefe99e	0.029286202
134	0x3d4bb8c0	0.04973674
135	0xbdcaa23e	-0.098942265
136	0xbd0e5790	-0.034751475
137	0xb9dc1668	-0.00041978364
138	0x3cd2df7c	0.025741331
139	0x3db33360	0.087500334
140	0xbda1096a	-0.07863124
141	0xbb130131	-0.002243113
142	0x3e0ed0e3	0.13946871
143	0xbe1c3c40	-0.15257359
144	0x3c9e1442	0.019296769
145	0x3d357872	0.04430432
146	0xbdaf820b	-0.085697256
147	0x3c6de484	0.014519814
148	0xbd73be36	-0.05950757
149	0x3dccfc85	0.10009102
150	0x3d88b662	0.06675412
151	0x3d1d4bf5	0.038402516
152	0x3cf4c351	0.02987829
153	0x3e3942ec	0.18091935
154	0xbe02667f	-0.12734412
155	0x3e222d97	0.15837704
156	0xbda42a3a	-0.080158666
157	0x3d9d0b31	0.0766815
158	0x3e4ab0b4	0.1979397
159	0xbc572c98	-0.013133191
160	0xbceb802e	-0.028747644
161	0xbde59839	-0.11210675
162	0x3e01e610	0.12685418
163	0xbd32bc98	-0.04363689
164	0xbd2774f4	-0.04088302
165	0x3db7b74d	0.08970509
166	0xbd7c3215	-0.0615712
167	0x3e165a15	0.14682801
168	0xbd554d13	-0.052075457
169	0x3d872b51	0.06600059
170	0xbdf7893d	-0.12086723
171	0xbd46aa1c	-0.048502073
172	0xbe14d75c	-0.14535278
173	0xbda75c81	-0.081719406
174	0xbe11e78c	-0.14248484
175	0xbde9a42f	-0.11408269
176	0xbe2ae9b3	-0.16690712
177	0x3d2c8e54	0.042127922
178	0xbdb28b39	-0.08717961
179	0x3d9348dc	0.07191631
180	0x3e29e6d9	0.16591968
181	0x3db43368	0.087988675
182	0x3dc682e3	0.096929334
183	0x3e4464eb	0.19179122
184	0x3e246d4f	0.16057323
185	0xbdc02628	-0.09382278
186	0xbe081919	-0.13290824
187	0x3d37a881	0.044838432
188	0x3df81caa	0.12114842
189	0x3dd6758e	0.104716405
190	0x3c460503	0.012086156
191	0x3dd483ae	0.103766784
192	0x3d6c36d8	0.05766949
193	0x3ba63554	0.005072275
194	0xbc3a2b63	-0.011362883
195	0x3df2da83	0.11858084
196	0xbd787f8d	-0.060668517
197	0x3d5177c2	0.0511396
198	0xbc94953c	-0.018137567
199	0x3dc3a3e4	0.09552744
200	0xbde776c4	-0.113019496
201	0xbd93f152	-0.072237626
202	0xbdd1baa8	-0.1024068
203	0x3ce458b1	0.027874323
204	0xbd6ec827	-0.05829635
205	0xbd12cb27	-0.035838272
206	0xbe191975	-0.14951117
207	0x3dace1a7	0.08441477
208	0x3df6ccf2	0.12050809
209	0xbc613830	-0.013746306
210	0x3c951ec4	0.018203147
211	0x3e3f7ffe	0.18701169
212	0xbbc71b71	-0.0060762693
213	0xbe0e0f9f	-0.13873146
214	0x3e0915b7	0.1338719
215	0xbe0f37db	-0.13986151
216	0xbe08024b	-0.13282125
217	0xbde68d14	-0.11257377
218	0x3dc0763d	0.09397552
219	0xbd875879	-0.06608672
220	0xbe637664	-0.22213131
221	0xbe7927f4	-0.24331647
222	0x3d9db6de	0.07700895
223	0xbe4bbda5	-0.19896562
224	0xbe786651	-0.2425778
225	0xbe0610a4	-0.13092285
226	0xbd9508c7	-0.07277065
227	0xbdeca486	-0.11554818
228	0x3d801e51	0.062557824
229	0xbc06cda8	-0.008227743
230	0x3c5099c5	0.012731974
231	0xbdb95e61	-0.090512045
232	0x3e1f3a07	0.1554948
233	0x3e3dfeeb	0.18554275
234	0xbc8bc1e4	-0.017060228
235	0x3e307136	0.17230687
236	0xbbcda2a2	-0.006275491
237	0x3deca77d	0.11555383
238	0xbdebad21	-0.11507631
239	0x3d90ab7d	0.07063959
240	0xbe12be6f	-0.14330457
241	0xbcccdacb	-0.025006672
242	0xbb86305f	-0.0040951218
243	0x3da84cd5	0.082177795
244	0x3dea17e6	0.114303395
245	0x3dd2c3de	0.10291265
246	0x3c00ad77	0.007853857
247	0x3e051d9e	0.1299958
248	0x3cf0d68d	0.02939918
249	0x3d051392	0.032489367
250	0xbe04633f	-0.12928484
251	0xbc6d3145	-0.014477079
252	0x3e2e947b	0.17048828
253	0x3cd378c9	0.02581443
254	0xbd0824b2	-0.03323812
255	0xbd393afb	-0.045222264

module.decoder.2.bias f4 [3]
0	0xbd82fe60	-0.063961744
1	0x3cadb3bd	0.02120387
2	0x3ea270a4	0.31726563
