autoencoder/ckpt.pth (torch, 596206 bytes, 6 tensors)

decoder.0.weight f4 [512, 64, 2, 2]
-0.0044115344 -0.016836 -0.031866845 0.015717389 -0.05141334 -0.04086654 -0.0063997316 -0.014540984
0.0046897447 0.043496985 0.018108664 -0.02104026 0.021255264 0.04959264 -0.006247868 -0.013806034
0.0031648674 0.0017886402 0.012157348 0.0107854055 -0.008357437 0.00011974796 0.0217427 -0.021797052
0.04483087 0.0072051827 0.011881479 0.02617264 -0.0038392649 -0.013068968 0.071336806 0.072653145
-0.025825912 -0.038020518 -0.005173235 -0.005358117 -0.05280929 -0.041929636 -0.0049455445 0.018836845
-0.032705866 -0.04250185 -0.004200785 -0.028437417 -0.013622613 -0.03518868 -0.021543413 -0.020019464
0.036545627 0.0043471637 -0.008954917 0.018175393 0.05257929 0.00085551187 -0.0067838663 -0.0056106662
0.004009714 0.024558898 -0.005161106 -0.012214579 0.053245503 0.027141867 -0.00030571467 0.025458757
0.0034632368 -0.010485731 0.010092005 -0.022029154 0.031075602 0.030527176 -0.009668107 0.01700834
0.032915585 0.013259691 -0.011162641 -0.027142402 -0.038336772 -0.0051623015 0.0012589396 0.005600819
-0.021904921 0.013628556 0.034397952 0.051153585 0.001494471 -0.027648987 -0.013579593 -0.015601145
0.030647598 0.046256334 0.03351604 -0.011871812 -0.021992806 -0.016720409 -0.015450043 -0.019269364
-0.033905163 -0.020675834 0.015921075 -0.019767465 -0.0035371617 -0.017988492 -0.01780505 -0.01551523
0.02926543 0.033744145 0.03351966 -0.007105681 0.036694754 0.010233594 0.03788127 0.032174602
-0.02751613 -0.040066868 -0.027215796 -0.008757435 0.04013895 0.031237504 0.0020013025 -0.00666251
0.0111277085 -0.0024327587 0.027792884 0.020163698 -0.017578911 -0.012206166 -0.0072985636 0.022370147
-0.00079239113 0.00718617 0.006769637 0.0052128485 0.008282309 -0.0049557267 0.01599085 -0.0013237849
0.029372117 -0.005189783 -0.018029978 0.011295684 -0.042487416 -0.046583556 -0.010404833 0.01032447
0.0029012763 0.030562432 -0.0073260507 -0.010956731 0.0019925477 0.03787641 0.038039356 -0.027599454
-0.038746346 -0.03270075 -0.0061696805 -0.0042244317 0.0060729957 -0.005672416 -0.003944739 0.0023071868
0.02626346 -0.012924864 -0.023474978 -0.0063560754 -0.019197399 -0.038936228 -0.029058948 0.0007334317
0.016472481 0.018513853 0.012097305 -0.024687693 -0.024552075 -0.025500406 -0.014226177 0.019543564
0.02671832 0.001751159 -0.014687611 0.025297407 0.043133073 0.039486207 -0.0019090618 0.018581914
-0.034373265 -0.011427091 0.013558351 -0.020064877 0.022960773 0.015377551 -0.0035079946 0.00045886185
0.025460316 0.029015355 0.009692447 0.008625335 0.0037931285 0.0011432782 0.0013408659 -0.0026296333
-0.022274626 -0.026551027 -0.038049016 -0.026812475 -0.0062370864 0.036464334 -0.010388029 0.010641407
-0.030138034 -0.041890785 -0.033550575 -0.0012797186 0.007632729 0.011768197 -0.010859388 0.0030414057
0.054580666 0.028246775 -0.005460694 -0.017792152 0.046404567 0.04474162 -0.020548394 0.0049908566
0.050464015 0.03198287 0.020519808 -0.023678517 -0.026395582 -0.046886712 0.01395089 -0.029349197
-0.012338146 0.026660396 0.02703461 0.012078306 0.030559128 0.03005467 0.03477913 0.03329773
-0.04687901 -0.032671135 0.00012336038 -0.00045040055 -0.013391381 -0.014991629 0.010997412 0.010696297
0.0017328309 -0.02389769 0.017842278 -0.03212027 -0.0028605044 0.0076262727 0.016605297 0.019579241
00000000: a28e 90bb a7eb 89bc cf86 02bd c1c1 803c
00000010: cb96 52bd ac63 27bd d7b4 d1bb 4f3d 6ebc
00000020: 6eac 993b e529 323d 9f58 943c a05c acbc
00000030: 851f ae3c a721 4b3d eaba ccbb b432 62bc
00000040: aa69 4f3b ce70 ea3a 9d2f 473c 45b5 303c
00000050: a2ed 08bc 3221 fb38 bf1d b23c bb8f b2bc
00000060: 93a0 373d 7419 ec3b 89aa 423c 0168 d63c
00000070: 2d9c 7bbb 3a1f 56bc 0819 923d 2ccb 943d
00000080: dd90 d3bc 67bb 1bbd 3e84 a9bb 2593 afbb
00000090: 8e4e 58bd 69be 2bbd 3c0e a2bb ba4f 9a3c
000000a0: 96f6 05bd 6b16 2ebd bda6 89bb 96f5 e8bc
000000b0: 6131 5fbc 0122 10bd d07b b0bc dcff a3bc
000000c0: deb0 153d a772 8e3b a5b7 12bc 90e4 943c
000000d0: 625d 573d 6e44 603a 324b debb aed9 b7bb
000000e0: eb63 833b be2f c93c 7f1e a9bb a81f 48bc
000000f0: f517 5a3d 9f58 de3c 5448 a0b9 e28e d03c
00000100: 79f7 623b 58cc 2bbc f058 253c 7c76 b4bc
00000110: 4392 fe3c 2114 fa3c fb66 1ebc 1355 8b3c
00000120: 7ed2 063d 2d3f 593c 83e3 36bc be59 debc
00000130: 0507 1dbd 8628 a9bb 0103 a53a 1387 b73b
00000140: f371 b3bc 4f4a 5f3c dee4 0c3d 6c86 513d
00000150: 20e2 c33a 2180 e2bc f17c 5ebc f29b 7fbc
00000160: ac10 fb3c 4877 3d3d 1d48 093d fd81 42bc
00000170: 422a b4bc 3df9 88bc 2d22 7dbc c9da 9dbc
00000180: 24e0 0abd 5e60 a9bc ea6c 823c 61ef a1bc
00000190: bacf 67bb 9a5c 93bc e5db 91bc 9733 7ebc
000001a0: 0ebe ef3c 4d37 0a3d e94b 093d c6d6 e8bb
000001b0: 3d4d 163d ceaa 273c 6429 1b3d 84c9 033d
000001c0: 8269 e1bc 281d 24bd a9f3 debc 587b 0fbc
000001d0: bd68 243d cbe5 ff3c 4928 033b 2f51 dabb
000001e0: fe50 363c eb6e 1fbb e7ad e33c 572e a53c
000001f0: a601 90bc 5ffc 47bc ca28 efbb 9941 b73c
00000200: 78b8 4fba f779 eb3b d5d3 dd3b 8bd0 aa3b
00000210: 86b2 073c a663 a2bb 3eff 823c da82 adba
00000220: cb9d f03c 0e0f aabb 9bb3 93bc 8811 393c
00000230: 4907 2ebd 66ce 3ebd 0879 2abc f727 293c
00000240: 5723 3e3b 115e fa3c 5e0f f0bb dc83 33bc
00000250: 6795 023b 4b24 1b3d 28cf 1b3d 4018 e2bc
00000260: 7db4 1ebd 39f1 05bd 082b cabb 1a6d 8abb
00000270: fbff c63b addf b9bb de42 81bb 2c34 173b
00000280: 7826 d73c cfc2 53bc 994e c0bc a046 d0bb
00000290: dd43 9dbc 987b 1fbd 080d eebc c543 403a
000002a0: 4cf1 863c 5daa 973c c633 463c d83d cabc
000002b0: 6f21 c9bc 3ae6 d0bc e914 69bc d319 a03c
000002c0: 61e0 da3c 2587 e53a 4ea4 70bc 823c cf3c
000002d0: 4eac 303d 4abc 213d 7c39 faba 1939 983c
000002e0: fbca 0cbd b238 3bbc d923 5e3c 195f a4bc
000002f0: 3b18 bc3c 20f2 7b3c 62e6 65bb 6593 f039
00000300: 2792 d03c 9cb1 ed3c 12cd 1e3c 4751 0d3c
00000310: 2396 783b 0dda 953a febf af3a ed55 2cbb
00000320: 4779 b6bc 8a81 d9bc 49d9 1bbd d6a5 dbbc
00000330: 7960 ccbb a05b 153d 8d32 2abc 4c59 2e3c
00000340: 0ae4 f6bc ac95 2bbd 546c 09bd 3bbc a7ba
00000350: f91b fa3b 65cf 403c 93eb 31bc 5252 473b
00000360: fa8f 5f3d c865 e73c 9fef b2bb d9c0 91bc
00000370: b712 3e3d fd42 373d 1b55 a8bc 578a a33b
00000380: 5bb3 4e3d 7800 033d 2819 a83c 73f9 c1bc
00000390: 8c3b d8bc 480c 40bd 4692 643c ba6d f0bc
000003a0: ef25 4abc e766 da3c b077 dd3c 16e4 453c
000003b0: 2357 fa3c 3635 f63c 9074 0e3d 3363 083d
000003c0: 3404 40bd 2bd2 05bd 4d5a 0139 bd23 ecb9
000003d0: 8667 5bbc 739f 75bc 7d2e 343c 853f 2f3c
000003e0: 2820 e33a 17c5 c3bc f829 923c 8b90 03bd
000003f0: 4d77 3bbb d0e5 f93b d507 883c a564 a03c

decoder.0.bias f4 [64]
-0.03297284 -0.07373014 -0.049976986 0.05568649 -0.11432032 0.078478 0.0031517823 0.0792302
-0.027610317 -0.06285919 0.028645763 -0.04696716 -0.022473097 0.028276723 0.027867435 0.00014250778
-0.033771574 0.0061167344 -0.07067152 0.031111019 0.05083678 -0.019618316 0.06637616 0.049261007
0.052379612 -0.03270888 -0.0067818756 0.056025606 -0.052421097 0.06644813 -0.124347284 -0.044319153
-0.10945942 -0.096128784 -0.04378955 -0.013613157 0.04761324 0.05838837 0.0010111263 -0.02344386
-0.05520867 -0.04531019 0.033118434 -0.05616242 0.05122977 0.013990763 0.0127337715 0.044848133
-0.05235839 -0.07727561 -0.019276313 -0.0060151117 0.015645685 -0.027265983 0.059333086 0.02789607
-0.003596656 -0.023069955 -0.03409466 0.07769677 0.0062469803 0.07991055 -0.028515093 0.048987333
00000000: 870e 07bd d4ff 96bd abb4 4cbd 8417 643d
00000010: c620 eabd 13b9 a03d 228e 4e3b 7143 a23d
00000020: 082f e2bc 52bc 80bd 85aa ea3c a360 40bd
00000030: 8019 b8bc 96a4 e73c 3f4a e43c 246e 1539
00000040: 1054 0abd e36e c83b 3bbc 90bd 89dc fe3c
00000050: 3a3a 503d 97b6 a0bc 39f0 873d e9c5 493d
00000060: 018c 563d bff9 05bd 7f3a debb 1b7b 653d
00000070: 81b7 56bd f515 883d caa9 febd 0088 35bd
00000080: 432c e0bd 2bdf c4bd ac5c 33bd b809 5fbc
00000090: 1a06 433d a528 6f3d c587 843a 560d c0bc
000000a0: 7d22 62bd 2e97 39bd 32a7 073d 910a 66bd
000000b0: 4fd6 513d 8339 653c 4fa1 503c adb2 373d
000000c0: c075 56bd ad42 9ebd 5ce9 9dbc 6a1a c5bb
000000d0: 612b 803c e95c dfbc 4007 733d 4d86 e43c
000000e0: e0b5 6bbb 34fd bcbc d8a6 0bbd 7c1f 9f3d
000000f0: 78b3 cc3b 24a8 a33d 7c98 e9bc f1a6 483d

decoder.1.weight f4 [64, 64, 2, 2]
-0.025203686 -0.0852483 -0.040226575 -0.08527818 0.04247416 0.074013226 0.037733894 0.07339128
0.040461667 0.07437048 0.040831808 0.07647546 0.046829022 0.080386914 0.048562624 0.07882718
0.047159817 0.09349024 0.06053061 0.08984071 0.0386343 0.07753268 0.053450175 0.096423246
-0.03476886 -0.06333716 -0.042750385 -0.0661709 0.031346228 0.07119188 0.040280078 0.082743935
0.04676487 0.08475407 0.06963452 0.10261034 0.016846528 0.048829116 0.030405838 0.06605149
-0.03521477 -0.071772255 -0.03265029 -0.08271952 0.03582164 0.09328893 0.04680761 0.10486177
-0.05695719 -0.09603165 -0.07081391 -0.101609275 0.029612832 0.065939836 0.03780385 0.072575346
-0.039146066 -0.08746638 -0.050157025 -0.09180078 -0.047852274 -0.09241257 -0.042877533 -0.08504406
-0.039774735 -0.06978766 -0.042713836 -0.074478716 -0.03455534 -0.06465288 -0.031165933 -0.05973312
-0.043151774 -0.07773542 -0.06063954 -0.10768412 -0.033603884 -0.06405436 -0.041481473 -0.090929754
0.049135223 0.09201157 0.04457466 0.08694308 0.045916304 0.08956157 0.06851026 0.09241091
-0.034577586 -0.06761111 -0.03977478 -0.06834079 -0.0174249 -0.02088643 -0.011020436 -0.0109805465
-0.07497488 -0.09578033 -0.05737189 -0.12514284 0.014403534 0.033865247 0.0070974384 0.02524946
-0.017010398 -0.070154294 -0.025514418 -0.07023867 0.032640044 0.07542785 0.04128964 0.077460736
-0.04755002 -0.082470104 -0.058250275 -0.08659656 -0.04988726 -0.09522036 -0.054490224 -0.10511856
0.0161583 0.04633628 0.0132609205 0.04251206 0.060802482 0.07834412 0.06544287 0.10461672
0.046283312 0.076975435 0.065073565 0.094511606 -0.036332242 -0.06958959 -0.03645905 -0.06757267
0.045780018 0.08536778 0.052312117 0.089044176 -0.0038006064 -0.027970545 -0.009058028 -0.03472505
-0.04760122 -0.08915051 -0.040958248 -0.08927879 0.03542783 0.083134145 0.043059576 0.06468069
0.04173245 0.08353495 0.0569476 0.10368898 0.044808794 0.08579727 0.04856909 0.091414176
-0.031864036 -0.07901675 -0.0407169 -0.082040675 0.033327848 0.0686675 0.04483839 0.0800288
-0.062064584 -0.09635045 -0.0606354 -0.10043708 0.034302313 0.084772706 0.048945248 0.086967945
-0.0311622 -0.051760945 -0.03412642 -0.052598666 -0.018780632 -0.054152675 -0.02877516 -0.06431461
0.012126138 0.038111288 0.019138498 0.04461728 0.049248237 0.08245216 0.06621362 0.091308184
0.026200509 0.076554194 0.043757576 0.07778607 0.060637537 0.09231966 0.060773466 0.10532805
0.017200004 0.06822249 0.023091502 0.07213325 -0.04152463 -0.07384126 -0.053743426 -0.08638933
0.037078623 0.08751096 0.05469124 0.093162306 0.048621222 0.083856426 0.06077565 0.09526351
-0.025033118 -0.061025288 -0.03760539 -0.07300921 -0.029337967 -0.0787117 -0.035959397 -0.0813367
-0.03943415 -0.072465375 -0.03679075 -0.0646374 0.036534537 0.09090533 0.05510166 0.08779613
-0.0460577 -0.070770316 -0.03270212 -0.060083177 0.047396954 0.08973933 0.050094027 0.08523251
0.023564298 0.04742788 0.036255807 0.06339002 -0.026774729 -0.07358106 -0.045871943 -0.08003358
0.05563507 0.08567296 0.06202209 0.10570662 -0.0045219758 -0.0032360086 -0.0014112523 0.0014497949
00000000: f677 cebc a996 aebd 9fc4 24bd 54a6 aebd
00000010: 63f9 2d3d 3f94 973d db8e 1a3d 2b4e 963d
00000020: 22bb 253d 8d4f 983d 413f 273d 2a9f 9c3d
00000030: cacf 3f3d e5a1 a43d 9ae9 463d 2570 a13d
00000040: a72a 413d d077 bf3d f2ee 773d 68fe b73d
00000050: 003f 1e3d 74c9 9e3d 92ee 5a3d 8d79 c53d
00000060: cb69 0ebd eab6 81bd 071b 2fbd 9c84 87bd
00000070: e764 003d 0ccd 913d b9fc 243d a775 a93d
00000080: 858c 3f3d 8b93 ad3d 8b9c 8e3d 5f25 d23d
00000090: bb01 8a3c 0a01 483d aa15 f93c 0146 873d
000000a0: 5d3d 10bd 55fd 92bd 4fbc 05bd da68 a9bd
000000b0: b6b9 123d 440e bf3d 56b9 3f3d c5c1 d63d
000000c0: f14b 69bd 3eac c4bd e206 91bd 8618 d0bd
000000d0: 9c96 f23c 770b 873d 36d8 1a3d 62a2 943d
000000e0: a057 20bd 9321 b3bd 7471 4dbd 0c02 bcbd
000000f0: bf00 44bd cd42 bdbd 5aa0 2fbd 952b aebd
00000100: d5ea 22bd d5ec 8ebd b4f4 2ebd 4c88 98bd
00000110: e689 0dbd bb68 84bd b34f ffbc b7aa 74bd
00000120: eabf 30bd bf33 9fbd 2b61 78bd 7e89 dcbd
00000130: 3aa4 09bd ef2e 83bd 7ae8 29bd 6139 babd
00000140: 0442 493d 9070 bc3d eb93 363d 370f b23d
00000150: bc12 3c3d 0e6c b73d 1b4f 8c3d ee41 bd3d
00000160: 3aa1 0dbd b277 8abd e1ea 22bd 42f6 8bbd
00000170: aabe 8ebc 051a abbc 0f8f 34bc c0e7 33bc
00000180: 6e8c 99bd 7a28 c4bd c9fe 6abd 7225 00be
00000190: cdfc 6b3c 49b6 0a3d a191 e83b f5d7 ce3c
000001a0: 6459 8bbc 0ead 8fbd 9d03 d1bc 4bd9 8fbd
000001b0: 91b1 053d eb79 9a3d 531f 293d bca3 9e3d
000001c0: cfc3 42bd 16e6 a8bd d797 6ebd 8a59 b1bd
000001d0: 9556 4cbd e402 c3bd 2431 5fbd 6648 d7bd
000001e0: 695e 843c 1ccb 3d3d 5544 593c 2021 2e3d
000001f0: 060c 793d e272 a03d e906 863d 4a41 d63d
00000200: 9293 3d3d 4ca5 9d3d 4a45 853d 4d8f c13d
00000210: 1ed1 14bd fd84 8ebd 1656 15bd 8a63 8abd
00000220: d483 3b3d 4dd5 ae3d 3b45 563d cb5c b63d
00000230: 9813 79bb 7c22 e5bc 2068 14bc db3b 0ebd
00000240: 7ff9 42bd 8b94 b6bd d6c3 27bd ccd7 b6bd
00000250: c61c 113d 3c42 aa3d 3d5f 303d 4f77 843d
00000260: a5ef 2a3d 5f14 ab3d e341 693d e35a d43d
00000270: 6d89 373d 7bb6 af3d 62f0 463d 5b37 bb3d
00000280: dd83 02bd 89d3 a1bd c4c6 26bd f104 a8bd
00000290: c882 083d 8ca1 8c3d 76a8 373d 24e6 a33d
000002a0: 6f37 7ebd 6253 c5bd d35c 78bd f5b1 cdbd
000002b0: 9580 0c3d 509d ad3d d07a 483d 401c b23d
000002c0: df47 ffbc 4903 54bd 25c8 0bbd b371 57bd
000002d0: d7d9 99bc 32cf 5dbd e2b9 ebbc 61b7 83bd
000002e0: b6ac 463c 951a 1c3d 57c8 9c3c 9cc0 363d
000002f0: 85b8 493d aedc a83d 029b 873d c9ff ba3d
00000300: 73a2 d63c 72c8 9c3d 253b 333d 4e4e 9f3d
00000310: 115f 783d 1712 bd3d 99ed 783d 3cb6 d73d
00000320: 06e7 8c3c 3cb8 8b3d 642a bd3c 99ba 933d
00000330: bb15 2abd 163a 97bd 1122 5cbd e4ec b0bd
00000340: c1df 173d f238 b33d ec03 603d e1cb be3d
00000350: 0c27 473d ebbc ab3d e3ef 783d 8419 c33d
00000360: 4112 cdbc a7f5 79bd 1c08 1abd da85 95bd
00000370: 2d56 f0bc 9a33 a1bd 294a 13bd db93 a6bd
00000380: b485 21bd ba68 94bd e6b1 16bd 9d60 84bd
00000390: 3da5 153d 932c ba3d 47b2 613d 75ce b33d
000003a0: 00a7 3cbd 07f0 90bd a8f2 05bd c719 76bd
000003b0: 4f23 423d 41c9 b73d 652f 4d3d 628e ae3d
000003c0: ea09 c13c bd43 423d f880 143d a0d2 813d
000003d0: ad56 dbbc abb1 96bd 38e4 3bbd a5e8 a3bd
000003e0: 99e1 633d 4e75 af3d e00a 7e3d b67c d83d
000003f0: 152d 94bb 3713 54bb c5f9 b8ba 0b07 be3a

decoder.1.bias f4 [64]
0.01575592 0.07210367 0.009089935 -0.008976239 -0.036247652 0.042185213 0.05090471 0.0042815097
0.023041518 0.046683505 -0.012717282 -0.039670233 -0.00420047 0.056032356 -0.03527349 -0.00069788774
0.01877402 -0.055675305 0.0019089683 0.008668118 -0.0017842504 0.010194097 -0.05009094 0.0838138
-0.011171695 0.10327368 -0.057765044 0.05754522 0.013454341 0.0531772 0.032664977 -0.029362872
0.018757733 -0.044863936 -0.032566186 -0.046165224 -0.00851239 -0.048993673 -0.056391254 -0.029152887
0.02001023 0.025727704 0.033958435 0.049834486 -0.04811744 -0.0029426876 0.07427798 -0.048707157
0.04188927 0.0077596228 -0.0018414034 -0.028505297 -0.0040704855 0.05177873 0.046674322 0.035728738
-0.08821513 0.016799394 -0.013665589 -0.022571588 -0.02874513 -0.025163354 0.051740885 0.09373788
00000000: 8f12 813c 17ab 933d f3ed 143c 1311 13bc
00000010: 6b78 14bd 67ca 2c3d 7581 503d e84b 8c3b
00000020: 91c1 bc3c 3437 3f3d 265c 50bc 417d 22bd
00000030: 19a4 89bb 2f82 653d ef7a 10bd 74f2 36ba
00000040: f9cb 993c ca0b 64bd 5936 fa3a b904 0e3c
00000050: 82dd e9ba 2405 273c 282c 4dbd 92a6 ab3d
00000060: 7c09 37bc 2781 d33d 0a9b 6cbd 89b4 6b3d
00000070: 996f 5c3c 56d0 593d b6cb 053d 688a f0bc
00000080: d1a9 993c 3fc3 37bd 1f64 05bd bf17 3dbd
00000090: 8d77 0bbc 97ad 48bd 84fa 66bd 09d2 eebc
000000a0: 7eec a33c e8c2 d23c 0018 0b3d 3f1f 4c3d
000000b0: cb16 45bd 1bda 40bb 0e1f 983d 2881 47bd
000000c0: 1594 2b3d 6f44 fe3b 3f5b f1ba f183 e9bc
000000d0: b561 85bb ef15 543d 932d 3f3d 4c58 123d
000000e0: 22aa b4bd e29e 893c a2e5 5fbc 0de8 b8bc
000000f0: e87a ebbc 6123 cebc 40ee 533d a5f9 bf3d

decoder.2.weight f4 [64, 3, 2, 2]
-0.18414213 -0.23883738 -0.30027714 -0.2069831 -0.37369797 -0.2693838 -0.29346988 -0.30485487
-0.3933149 0.009455275 -0.3434132 -0.08827248 -0.009581769 0.25325292 0.29470748 0.13415198
0.09097002 0.0672758 0.082687296 0.22363415 0.29909262 0.2556502 0.21627508 0.36898172
0.0042737583 0.19923304 0.14708088 0.31500638 0.08596009 0.19815059 0.1698057 0.052300412
0.2324247 0.31515926 0.35250226 0.289315 0.24499404 0.33161068 0.091048114 0.35345343
0.2978494 0.008069192 0.18972373 0.3428857 0.24054022 0.014636174 0.048427343 0.3150962
0.30744487 0.22805887 0.11076309 0.43734735 0.32661822 0.05116067 0.3303908 0.33397406
0.22173508 0.2390889 0.29263115 0.28545728 0.36236322 0.23057973 0.34368145 0.31189144
0.24070631 0.23763512 0.028739328 0.048693225 0.37667736 0.15601431 0.19818103 0.37918705
0.0023027547 -0.17716177 0.057261236 -0.20431818 -0.3306724 -0.3169949 -0.09618646 -0.34707686
-0.269121 -0.12799153 -0.1610742 -0.19339053 0.27644315 0.33557776 0.36721945 0.029205697
0.053115834 0.122458406 0.045079075 0.10308601 0.30741283 0.3093013 0.37979266 0.23656759
0.37518513 0.40866935 0.34261072 0.02443824 0.28815725 0.3662932 0.19709553 0.298535
0.33559823 0.4415496 0.087979704 0.034296297 0.2724678 0.27811876 0.1333995 0.06592009
0.29008368 0.2722889 0.14820357 0.05445504 0.32856804 0.12264489 0.12582627 0.11508341
-0.16152892 -0.024908084 -0.07970999 -0.18653975 -0.34825295 -0.34853214 -0.2534001 -0.12057975
-0.30378893 -0.19644047 -0.32941654 -0.35211387 0.34185556 0.39410546 0.16208982 0.21155867
0.37123471 0.14726351 0.3491141 0.09505336 0.20268725 0.33884564 0.31980285 0.2092845
-0.35394326 -0.21094772 -0.33402455 -0.40165988 -0.18907174 -0.35144925 -0.3361722 -0.25271803
-0.003079344 -0.09472912 0.0319912 -0.32437837 0.06478981 0.22069335 0.09550508 0.060067236
0.31447056 0.039729957 0.077577695 0.109866485 0.24216077 0.37925282 0.2734112 0.36074713
-0.2547654 -0.17392518 -0.20702255 -0.1763516 -0.2984334 -0.24808906 -0.06655994 -0.2184446
-0.38004178 -0.29340705 -0.4328157 -0.24019815 -0.14607064 -0.32668766 -0.24799073 -0.25313824
-0.26547053 -0.3084923 -0.38501456 -0.29536524 -0.26304004 -0.04782201 -0.34926406 -0.13402261
0.04209844 -0.15649113 -0.17135146 -0.08370291 -0.16534406 -0.29961994 -0.12668219 -0.3334179
0.033421297 -0.3947224 -0.38373283 -0.1928349 -0.045672175 -0.13441472 -0.24251679 -0.067246996
-0.006140993 -0.23813266 -0.3584313 -0.32428545 -0.07979999 -0.23590107 -0.3531201 -0.090262964
-0.40615603 -0.30286384 -0.3189449 -0.073354535 -0.38165694 -0.3736657 -0.14586422 -0.26632702
-0.32184795 -0.15682457 -0.2892617 -0.3397121 -0.3809857 -0.34617975 -0.35628265 -0.05167607
-0.34893444 -0.24994123 -0.34166706 -0.059420455 -0.4116819 0.029510085 -0.35959396 -0.31270677
0.22649981 0.13578926 0.16291626 0.37761652 0.20756763 0.3301722 0.34900907 0.36113957
0.14786558 0.13570422 0.36186743 0.08371594 0.04803577 0.2004669 0.21981305 0.39216864
00000000: c18f 3cbe c991 74be edbd 99be 61f3 53be
00000010: 5755 bfbe acec 89be af41 96be f015 9cbe
00000020: 9260 c9be 4cea 1a3c dbd3 afbe 34c8 b4bd
00000030: dafc 1cbc 5eaa 813e e6e3 963e 235f 093e
00000040: 7d4e ba3d e5c7 893d f557 a93d 5a00 653e
00000050: ab22 993e 95e4 823e 3777 5d3e 2ceb bc3e
00000060: e20a 8c3b bf03 4c3e 5f9c 163e 8448 a13e
00000070: d80b b03d fde7 4a3e 8ce1 2d3e f538 563d
00000080: be00 6e3e 8e5c a13e 2d7b b43e 1821 943e
00000090: b8df 7a3e e0c8 a93e 6f77 ba3d d9f7 b43e
000000a0: b77f 983e a534 043c f046 423e b78e af3e
000000b0: 2d50 763e 90cc 6f3c c05b 463d 4a54 a13e
000000c0: 6a69 9d3e 4488 693e c2d7 e23d feeb df3e
000000d0: 813a a73e da8d 513d fc28 a93e a6fe aa3e
000000e0: 850e 633e b8d3 743e c0d3 953e 7527 923e
000000f0: ac87 b93e 181d 6c3e 04f7 af3e 3cb0 9f3e
00000100: b77b 763e 9f56 733e bd6e eb3c 8c72 473d
00000110: dbdb c03e 37c2 1f3e f8ef 4a3e ce24 c23e
00000120: d0e9 163b e569 35be c28a 6a3d c938 51be
00000130: e54d a9be 284d a2be 68fd c4bd 0fb4 b1be
00000140: 3aca 89be 3610 03be a3f0 24be 2b08 46be
00000150: f589 8d3e d9d0 ab3e 3004 bc3e c940 ef3c
00000160: fd8f 593d 79cb fa3d d6a4 383d c21e d33d
00000170: 3765 9d3e bd5c 9e3e 2f74 c23e c63e 723e
00000180: 4418 c03e 1c3d d13e ac6a af3e b432 c83c
00000190: 5989 933e c88a bb3e 69d3 493e 94d9 983e
000001a0: 88d3 ab3e ca12 e23e b42e b43d 467a 0c3d
000001b0: e680 8b3e 9565 8e3e e199 083e 1d01 873d
000001c0: d985 943e 7369 8b3e adc2 173e 3f0c 5f3d
000001d0: 123a a83e 3e2d fb3d 9ad8 003e dab0 eb3d
000001e0: d667 25be 0a0c ccbc fe3e a3bd 4704 3fbe
000001f0: 364e b2be ce72 b2be a8bd 81be 84f2 f6bd
00000200: 398a 9bbe b127 49be 49a9 a8be 4548 b4be
00000210: b107 af3e 31c8 c93e e0fa 253e d6a2 583e
00000220: 7a12 be3e 3fcc 163e 15bf b23e 56ab c23d
00000230: 3f8d 4f3e 2d7d ad3e 33bd a33e ad4e 563e
00000240: 0d38 b5be ae02 58be 4405 abbe 5da6 cdbe
00000250: 069c 41be 28f1 b3be c31e acbe 4264 81be
00000260: d2ce 49bb 5701 c2bd 3409 033d ec14 a6be
00000270: 85b0 843d 70fd 613e 2b98 c33d 1009 763d
00000280: 4902 a13e e1bb 223d 0ee1 9e3d ae01 e13d
00000290: fef8 773e 6d2d c23e 8efc 8b3e d9b3 b83e
000002a0: 9c70 82be 7119 32be b8fd 53be 8495 34be
000002b0: 43cc 98be 0f0b 7ebe 9450 88bd f1af 5fbe
000002c0: d694 c2be 7339 96be 059a ddbe 81f6 75be
000002d0: 8b93 15be 9b43 a7be 48f1 7dbe 569b 81be
000002e0: c1eb 87be b4f2 9dbe a120 c5be 1d3a 97be
000002f0: 2fad 86be 03e1 43bd bdd2 b2be 393d 09be
00000300: 6a6f 2c3d 363f 20be c276 2fbe 6e6c abbd
00000310: f44f 29be c967 99be fab8 01be c0b5 aabe
00000320: c5e4 083d 0e19 cabe a178 c4be 8376 45be
00000330: bf12 3bbd 03a4 09be 5256 78be cbb8 89bd
00000340: 623a c9bb 0cd9 73be 4f84 b7be be08 a6be
00000350: 2d6e a3bd 0d90 71be 28cc b4be cadb b8bd
00000360: aff3 cfbe f810 9bbe bf4c a3be e73a 96bd
00000370: 8a68 c3be 1c51 bfbe 6e5d 15be 045c 88be
00000380: 41c9 a4be 9f96 20be 1c1a 94be bfee adbe
00000390: 8f10 c3be 793e b1be ae6a b6be 49aa 53bd
000003a0: 89a7 b2be 98f0 7fbe fcee aebe dd62 73bd
000003b0: f8c7 d2be 22bf f13c b31c b8be 1a1b a0be
000003c0: 91ef 673e 570c 0b3e 85d3 263e f456 c13e
000003d0: 9c8c 543e 550c a93e 51b1 b23e 49e7 b83e
000003e0: 136a 173e 0cf6 0a3e b046 b93e 4373 ab3d
000003f0: 28c1 443d 3247 4d3e ac16 613e 54ca c83e

decoder.2.bias f4 [3]
-0.09897835 0.042917427 -0.09771201
00000000: 29b5 cabd 2fca 2f3d 3c1d c8bd
